app/src/main/assets/keypoints_to_pose_classifier_v3.tflite (tflite, 68272 bytes, 6 tensors)

sequential_2/dense_8/BiasAdd/ReadVariableOp f4 [25]
0	0xbd7b178c	-0.061301753
1	0xbd925a13	-0.071460865
2	0x3c73aeca	0.014873216
3	0xbd11bed3	-0.035582375
4	0x3cc52509	0.024065511
5	0x3e40052c	0.18751973
6	0xbdb92c26	-0.09041624
7	0xbd23dbf0	-0.04000467
8	0x3c29617c	0.0103381835
9	0x3cc52b15	0.024068395
10	0xbd49b4bf	-0.04924464
11	0xbc8e3cf8	-0.017363057
12	0x3e1a15d3	0.15047388
13	0xbc29ded8	-0.0103680715
14	0xbd454aa6	-0.048166893
15	0xbd188f0f	-0.037245806
16	0xbc53dbf5	-0.01293086
17	0x3d9bbbc6	0.07604174
18	0x3ba031a8	0.004888732
19	0x3e372b39	0.17887582
20	0xbd6bd554	-0.057576492
21	0xbe2b1eb0	-0.16710925
22	0x3cd46d78	0.025931105
23	0x3df78799	0.1208641
24	0x3d9a8081	0.075440414

sequential_2/dense_7/BiasAdd/ReadVariableOp f4 [64]
0	0xbd0dffed	-0.034667898
1	0xbca46d5d	-0.02007168
2	0x3e60354f	0.21895336
3	0xbdbac763	-0.09120061
4	0x3d9287ed	0.07154832
5	0x3c5eb656	0.013593277
6	0x3b67baad	0.003535907
7	0xbdedd280	-0.11612415
8	0x00000000	0.0
9	0x3d19e2cc	0.037569806
10	0x3e37273b	0.17886059
11	0xbd05bee5	-0.032652754
12	0xbc22e00d	-0.009941113
13	0xbd806f9e	-0.06271289
14	0x3de3d029	0.11123688
15	0x3e269ad3	0.16269998
16	0x3d8e1f5f	0.06939577
17	0x3d1f522c	0.038896725
18	0xbc1953f3	-0.009358394
19	0x00000000	0.0
20	0x3e3295a5	0.17439897
21	0xbd48127c	-0.048845753
22	0x3df82afe	0.12117575
23	0x3dad33eb	0.08457168
24	0xbbd46572	-0.00648182
25	0xbd4882d0	-0.048952878
26	0x3da6e0be	0.08148335
27	0x3d460e0f	0.04835325
28	0x3e921f15	0.2853934
29	0x3e5fb956	0.21848044
30	0xbd9d5de1	-0.076839216
31	0xbbeb304f	-0.0071773897
32	0xbd3a3279	-0.04545829
33	0x3de42d04	0.111413985
34	0x3e037786	0.12838563
35	0x3dd416ae	0.10355888
36	0x3d9ca0a1	0.07647825
37	0xbcd6b581	-0.026209595
38	0x3cd33bbb	0.025785318
39	0x3dbfe53d	0.093698956
40	0xbc5ffe30	-0.013671443
41	0xbe1123ab	-0.14173763
42	0xbdaeef55	-0.08541743
43	0xbd16057a	-0.036626317
44	0xbd1d384d	-0.03838377
45	0x3dcc8bba	0.09987588
46	0xbcde2b9a	-0.0271204
47	0xbcdeeaea	-0.027211625
48	0x3d95f2e2	0.07321717
49	0xbc3cfe6a	-0.011535266
50	0x3dccfcb6	0.10009138
51	0xbd268d62	-0.040662177
52	0xbcc4a530	-0.024004549
53	0xbdb88950	-0.09010565
54	0xbd0cb944	-0.03435637
55	0x3d8ba762	0.06819035
56	0x3db15675	0.086590685
57	0xbd052e97	-0.032515135
58	0xbc38216b	-0.011238436
59	0x3dfc7721	0.123274095
60	0xbcdb00d0	-0.026733786
61	0x3d57a85b	0.05265079
62	0x3e0e3796	0.13888392
63	0xbc78ac2b	-0.015177767

sequential_2/dense_6/BiasAdd/ReadVariableOp f4 [128]
0	0x3e32c9f9	0.17459859
1	0xbc9d40be	-0.01919591
2	0xbde9c0b6	-0.1141371
3	0xbdd14214	-0.102176815
4	0x3e443423	0.19160514
5	0x3e27482f	0.1633613
6	0x3d26f7b8	0.040763587
7	0x3c639013	0.01388933
8	0x3e12f1e1	0.14350082
9	0xbd567a37	-0.052362647
10	0x3d8b8fa2	0.06814505
11	0x00000000	0.0
12	0xbbf275d6	-0.007399301
13	0x00000000	0.0
14	0x3e1d07a3	0.15334944
15	0xbba99332	-0.0051750178
16	0x3e8a80ed	0.27051488
17	0xbe3afb37	-0.18259893
18	0x3e2b8f36	0.1675385
19	0x3d9af5e0	0.07566428
20	0x3d8cbcfe	0.06871985
21	0xbc911298	-0.017709062
22	0xbdf588dd	-0.11988995
23	0xbe141bda	-0.1446375
24	0x3de8ff87	0.11376863
25	0x00000000	0.0
26	0x3df1b8fe	0.118028626
27	0x3dca6d76	0.09884159
28	0xbc6f353b	-0.0146000935
29	0x00000000	0.0
30	0x3dddfe08	0.10839468
31	0x3ce34afa	0.027745713
32	0x3e9876ba	0.2977808
33	0xbba76ef1	-0.005109661
34	0x3e565089	0.20929159
35	0x3dc07438	0.09397167
36	0x3e03efcb	0.12884443
37	0xbbc46ee1	-0.005994663
38	0xbd5b5cb1	-0.053555194
39	0xbc5f6212	-0.013634222
40	0xbd025197	-0.03181609
41	0xbcfcf042	-0.030876283
42	0x3def0f94	0.11672893
43	0x00000000	0.0
44	0x3d610912	0.05494029
45	0x00000000	0.0
46	0x3caca604	0.021075256
47	0x3bdf16a0	0.006808117
48	0x3e033986	0.12814912
49	0xbbbd2870	-0.005772643
50	0xbc2d67c6	-0.010583824
51	0x3c9535ce	0.018214133
52	0xbc62765b	-0.013822163
53	0x00000000	0.0
54	0x3d84a5e2	0.06476952
55	0xbd924f3b	-0.07144018
56	0xbcc2840e	-0.02374461
57	0x3d180d89	0.037122283
58	0xbd4643d9	-0.04840455
59	0xbd288f91	-0.04115254
60	0xbdaf142f	-0.085487716
61	0xbbbd1463	-0.0057702526
62	0x3da6a91e	0.08137725
63	0xbd25e310	-0.040499747
64	0x00000000	0.0
65	0xbce3a44a	-0.0277883
66	0x3db3cc60	0.08779216
67	0xbd0b9c9a	-0.034084894
68	0xbda8c43c	-0.08240554
69	0x3e1b8d62	0.15190652
70	0x3d548329	0.051882897
71	0x00000000	0.0
72	0xbc15aee2	-0.009135934
73	0x00000000	0.0
74	0xbc51d00b	-0.012805949
75	0xbc300ffe	-0.010746
76	0x00000000	0.0
77	0x00000000	0.0
78	0xbd324083	-0.043518554
79	0x00000000	0.0
80	0xbe0c8e0c	-0.13726062
81	0x3d718b0d	0.0589705
82	0xbd5a089c	-0.053230867
83	0xbc3309ed	-0.010927659
84	0xbcdfbc80	-0.027311563
85	0xbbba08ec	-0.005677333
86	0x00000000	0.0
87	0xbc684afe	-0.014178036
88	0xbbac58eb	-0.0052596233
89	0x3db5b090	0.08871567
90	0x00000000	0.0
91	0xbd1b8f64	-0.037978545
92	0x00000000	0.0
93	0xbdbd2a56	-0.092365906
94	0x00000000	0.0
95	0x3d6fdd9a	0.058560945
96	0x3d7fd1a3	0.062455785
97	0x00000000	0.0
98	0xbe282201	-0.16419221
99	0x3d224da1	0.039624814
100	0x3dcca56a	0.09992488
101	0xbd32e138	-0.043671817
102	0xbc45bdfb	-0.012069221
103	0x3dffa0b2	0.12481822
104	0xbde3fd8d	-0.11132345
105	0xbdd9f7f9	-0.10643
106	0xbe05d525	-0.1306959
107	0x3ccf1d0c	0.025282405
108	0xbd63b1ff	-0.055589672
109	0xbcf0ae30	-0.029379934
110	0x3cb3d88c	0.021953844
111	0xbbcb3646	-0.0062015383
112	0xbcee9ce7	-0.029127551
113	0xbe3950f2	-0.18097284
114	0x00000000	0.0
115	0xbde700d6	-0.11279456
116	0xbd9fb094	-0.077973515
117	0xbdadc45e	-0.0848472
118	0xbe148449	-0.14503588
119	0x00000000	0.0
120	0x3d13b396	0.03605994
121	0x3db34e6b	0.087551914
122	0xbca46942	-0.020069722
123	0xbd433fae	-0.04766815
124	0x00000000	0.0
125	0x3d834641	0.06409884
126	0x3d632fdd	0.055465568
127	0x3d43b437	0.04777929

sequential_2/dense_6/MatMul f4 [128, 51]
0	0xbe92190b	-0.2853473
1	0x3e3efac3	0.18650346
2	0x3e4da4aa	0.20082346
3	0xbc935f19	-0.017989682
4	0x3e2506ac	0.16115826
5	0x3d7c7241	0.0616324
6	0xbe9b4c3a	-0.30331594
7	0xbd2542a6	-0.040346764
8	0x3e8988c7	0.26862165
9	0xbeb5effc	-0.35534656
10	0x3e0a247f	0.13490485
11	0x3e454ad5	0.19266827
12	0xbea7261f	-0.32646272
13	0xba7109bc	-0.0009194871
14	0x3d41fa1f	0.047357675
15	0xbe36a881	-0.17837717
16	0xbcba2fc2	-0.02272785
17	0x3eb122e3	0.3459693
18	0xbeaca57d	-0.33720008
19	0xbd3af78c	-0.045646235
20	0x3dad5de2	0.08465172
21	0xbf1ac030	-0.60449505
22	0xbdab296a	-0.083575085
23	0x3e060411	0.13087489
24	0xbed1a05f	-0.40942666
25	0x3e406284	0.1878758
26	0x3e38e179	0.18054761
27	0xbf14d764	-0.5814116
28	0x3e989e0f	0.2980809
29	0xbe8357a8	-0.25652814
30	0xbeef62b0	-0.4675498
31	0xbe061f37	-0.13097845
32	0x3e3542a3	0.17701201
33	0x3c31515e	0.010822622
34	0x3d2e8646	0.042608522
35	0x3dfa1945	0.12211851
36	0xbdb81110	-0.089876294
37	0x3da64a8a	0.08119686
38	0x3dbfe430	0.09369695
39	0xbcf846ab	-0.030307135
40	0x3e9c4a43	0.30525407
41	0x3e54fc46	0.2079936
42	0xbd1baf93	-0.038009237
43	0x3ce98818	0.028507277
44	0xbb8e4740	-0.0043419898
45	0xbdedc84d	-0.1161047
46	0x3edb1cb2	0.4279533
47	0x3e51e3c0	0.20497036
48	0x3e547a56	0.20749792
49	0xbebd1211	-0.36927846
50	0xbd3ef731	-0.04662246
51	0x3dfce93b	0.12349173
52	0x3dc47136	0.09591906
53	0xbdc0c5b0	-0.09412706
54	0x3d6916d5	0.05690654
55	0xbdbe807b	-0.093018495
56	0xbe453c17	-0.19261204
57	0xbe3d6bca	-0.1849815
58	0xbd2a8fdf	-0.041641112
59	0x3d9cb5ec	0.07651886
60	0x3d63255d	0.055455554
61	0xbd5e00e2	-0.05420006
62	0x3d20f424	0.03929533
63	0x3dd55dd5	0.10418288
64	0xbe14cd95	-0.14531548
65	0x3a75bce3	0.00093741546
66	0xbe3483de	-0.17628428
67	0xbd34bef7	-0.04412743
68	0xbe4751c8	-0.19464791
69	0xbbe7720b	-0.0070631555
70	0xbe1f5d7e	-0.15563008
71	0x3e224290	0.15845704
72	0x3cb930fa	0.022606362
73	0x3c23613b	0.009971912
74	0xbe0c54c0	-0.13704205
75	0x3e259e5b	0.16173689
76	0xbe32f752	-0.17477158
77	0x3d726a24	0.059183255
78	0x3e212f53	0.15740709
79	0x3d28c597	0.04120406
80	0xbdab2ed4	-0.08358541
81	0xbdd66beb	-0.104698025
82	0xbd8c2ffd	-0.068450905
83	0xbe1eccab	-0.15507762
84	0xbdbfb2eb	-0.09360298
85	0x3e103836	0.14083943
86	0xbe1d62c7	-0.15369712
87	0xbe3d0aec	-0.18461198
88	0xbe3dd756	-0.18539175
89	0x3b4b86f5	0.0031055782
90	0x3df5920d	0.119907476
91	0x3d40215e	0.04690682
92	0x3dba274f	0.09089529
93	0xbcf27063	-0.029594606
94	0x3a251b7b	0.00062983454
95	0x3e15df41	0.14635946
96	0x3e04e2d4	0.12977153
97	0xbe2dc43c	-0.16969389
98	0x3e08b901	0.13351823
99	0xbcecc1ea	-0.02890106
100	0xbd6db891	-0.058037344
101	0x3df82ae6	0.12117557
102	0xbe006005	-0.12536629
103	0xbcf986a8	-0.030459717
104	0x3e3e6801	0.18594362
105	0xbe2a3f10	-0.16625619
106	0x3b411dbe	0.002946719
107	0x3ebbeeff	0.36705777
108	0xbd9ce360	-0.07660556
109	0xbe74da35	-0.23911364
110	0x3dc20645	0.09473852
111	0x3e11a115	0.14221604
112	0xbda6283f	-0.08113145
113	0x3e50139b	0.20319979
114	0x3e48124e	0.19538233
115	0xbe2f052f	-0.17091821
116	0x3e00695c	0.12540191
117	0x3eaa2221	0.33229163
118	0x3d0b9e05	0.034086246
119	0x3dae8616	0.085216686
120	0x3e6b4a58	0.22977579
121	0x3df217ec	0.11820969
122	0x3e92e1f2	0.28688008
123	0x3d8e91eb	0.069614254
124	0xbdb5b63f	-0.08872651
125	0xbe0fab20	-0.14030123
126	0xbe0dbf5b	-0.13842528
127	0xbdb2a566	-0.087229535
128	0x3de086ef	0.109632365
129	0xbe7c25d7	-0.2462381
130	0xbe41fe89	-0.18944754
131	0x3e99a393	0.3000761
132	0xbf1276aa	-0.57212317
133	0xbd41b6ae	-0.047293358
134	0x3e1441da	0.14478245
135	0x3f083b2a	0.5321528
136	0xbda62ca5	-0.08113984
137	0x3b33b800	0.0027422905
138	0x3f1a69e0	0.603178
139	0xbdf85541	-0.12125636
140	0x3d9f7999	0.07786865
141	0xbe988eaf	-0.2979636
142	0xbc70baec	-0.014693003
143	0x3d6e3d53	0.058163952
144	0xbe15f4f7	-0.14644228
145	0xbe05127c	-0.12995332
146	0x3d022174	0.031770185
147	0xbe7db2d1	-0.24775244
148	0xbb782df6	-0.0037869192
149	0x3d86f23c	0.06589171
150	0xbec30a66	-0.3809387
151	0x3c96107f	0.018318413
152	0x3deafa59	0.11473531
153	0xbeee41af	-0.46534488
154	0x3de1fa8e	0.11034118
155	0xbe25812f	-0.16162561
156	0xbe1bfd77	-0.15233408
157	0x3c972a87	0.018452896
158	0x3e5ac390	0.21363664
159	0xbed1eb60	-0.4099989
160	0x3d65e150	0.056123078
161	0x3e747e37	0.23876272
162	0xbd41c400	-0.04730606
163	0xbd99cbcb	-0.075095735
164	0xbe79e8f9	-0.24405278
165	0xbe919d4e	-0.28440326
166	0x3e1def2d	0.1542327
167	0x3e4c7d4c	0.19969672
168	0x3e4ee26d	0.20203562
169	0xbcb07090	-0.021538049
170	0xbe3dc734	-0.18533021
171	0x3e47df13	0.1951869
172	0xbe47eb71	-0.19523408
173	0xbe4c7529	-0.19966568
174	0x3e597703	0.21236806
175	0xbd56a711	-0.05240542
176	0xbe85b786	-0.2611658
177	0x3ea79c05	0.3273622
178	0xbd36f5ea	-0.044668116
179	0x3dc59e7d	0.0964937
180	0xbdf7a0c2	-0.12091209
181	0xbc0eb44c	-0.008709978
182	0xbe19d82f	-0.15023874
183	0x3e699c00	0.22813416
184	0xbe6e7dd0	-0.23290181
185	0x3d60970b	0.054831546
186	0x3f04e66f	0.51914114
187	0xbe0e57c6	-0.1390067
188	0x3e06d89b	0.13168566
189	0x3ed45934	0.41474307
190	0xbdcea476	-0.10089962
191	0x3dca4216	0.09875886
192	0x3ed57a28	0.4169476
193	0x3da62a4f	0.081135385
194	0x3e1ba9a7	0.15201436
195	0x3eb7ce42	0.3589955
196	0xbc342f47	-0.0109976
197	0xbe26601f	-0.16247605
198	0x3d2c0fad	0.042007137
199	0x3d8f968c	0.070111364
200	0x3d14bab2	0.03631086
201	0xbe635988	-0.22202122
202	0x3e73f1f5	0.23822768
203	0xbe1d6af5	-0.15372832
204	0x3eb8152b	0.3595365
205	0x3a8190bf	0.0009885057
206	0xbd923bf4	-0.071403414
207	0x3d23997b	0.039941292
208	0x3e3cb70a	0.18429199
209	0x3d2de02c	0.042450115
210	0x3e3164a4	0.17323548
211	0x3c0834f7	0.008313409
212	0x3e7a3bbc	0.2443685
213	0xbe53a4fd	-0.20668407
214	0x3c0203ac	0.007935446
215	0x3e850d01	0.25986484
216	0xbe0ecdb2	-0.13945654
217	0x3d8c70b2	0.068574324
218	0x3de76b1d	0.11299727
219	0xbe95f2bb	-0.2928675
220	0x3dc661dc	0.09686634
221	0xbe034151	-0.12817885
222	0xbdf54c7a	-0.11977477
223	0x3ca95b41	0.020673396
224	0x3f04f19c	0.51931167
225	0x3d5aac81	0.05338717
226	0x3da91453	0.0825583
227	0x3cd858d9	0.026409553
228	0xbd28cc87	-0.041210677
229	0xbd7246bf	-0.0591495
230	0x3dbdb954	0.09263864
231	0x3c6d5b26	0.0144870635
232	0xbe2bd182	-0.1677914
233	0x3e5bea3f	0.21476077
234	0xbe7dd0c6	-0.24786672
235	0x3e1fa128	0.1558882
236	0x3dd08d4f	0.101832025
237	0xbf180696	-0.5938505
238	0x3e466bae	0.19377014
239	0x3d0beae1	0.034159545
240	0xbf2b2089	-0.6684652
241	0x3e5b0634	0.21389085
242	0x3cd3f992	0.02587584
243	0x3d475d76	0.048673116
244	0xbdfaf21b	-0.12253209
245	0xbe59dbeb	-0.21275298
246	0xbea97940	-0.3310032
247	0x3e85db94	0.26144087
248	0xbda3866c	-0.07984623
249	0xbded35dd	-0.11582539
250	0x3c06e1fa	0.008232588
251	0x3de61bb5	0.112357534
252	0xbe7568c8	-0.23965752
253	0x3d79be9f	0.060972806
254	0x3c3d222a	0.01154379
255	0x3e3a2832	0.18179396

sequential_2/dense_7/MatMul f4 [64, 128]
0	0xbe12671e	-0.14297149
1	0x3dd83ae8	0.105581105
2	0xbdf57b43	-0.11986401
3	0x3d7d71a2	0.061875947
4	0x3e157f9a	0.14599457
5	0xbd9c7339	-0.076391645
6	0x3dba7161	0.091036566
7	0xbe3fe05d	-0.18737932
8	0xbd4e9157	-0.050431576
9	0xbd1aec8a	-0.037823237
10	0xbe076b6c	-0.13224572
11	0x3e2a9577	0.16658579
12	0xbdd9e846	-0.10640006
13	0xbba0dbc0	-0.0049090087
14	0xbdfac587	-0.122447066
15	0x3de57d5e	0.112055525
16	0x3e17d29b	0.14826433
17	0xbd8a2b5d	-0.06746552
18	0xbda4a477	-0.08039182
19	0x3db850f5	0.08999816
20	0x3d721200	0.059099197
21	0x3e054c93	0.13017492
22	0xbe012273	-0.12610798
23	0xbe2516ae	-0.16121933
24	0xbc8dd327	-0.0173126
25	0xbd045b74	-0.03231378
26	0xbe3a789f	-0.18210076
27	0xbd5d6784	-0.0540538
28	0xbdaa57f1	-0.08317555
29	0x3e2fb3ed	0.1715848
30	0xbd51c14a	-0.051209725
31	0xbd299c6a	-0.041408934
32	0xbd919164	-0.07107809
33	0xbd351708	-0.044211417
34	0x3dadfad4	0.08495107
35	0x3d9a0cc0	0.07521963
36	0xbe348693	-0.17629461
37	0xbdb57dff	-0.088619225
38	0x3d382560	0.04495752
39	0xbc8c882c	-0.017154776
40	0xbce8f703	-0.028438097
41	0xbd64d46f	-0.055866655
42	0xbe012b65	-0.1261421
43	0xbcbe2110	-0.023209125
44	0xbce72cbe	-0.028219577
45	0x3c2fcd90	0.010730162
46	0xbd6d71a6	-0.05796971
47	0xbdda2458	-0.10651463
48	0x3e194ebc	0.14971441
49	0xbe2938e3	-0.16525607
50	0x3db0e8a9	0.086381264
51	0xbd80de96	-0.06292455
52	0xbd8c9ca0	-0.06865811
53	0xbc840d70	-0.016119689
54	0xbdd73744	-0.10508588
55	0x3d1966f8	0.037451714
56	0xbe21209d	-0.15735097
57	0xbe157633	-0.1459587
58	0x3cc8a7ab	0.024494013
59	0xbe19a7a9	-0.15005364
60	0x3d7a84ce	0.06116181
61	0xbdfcdbfb	-0.123466454
62	0x3c2027b1	0.009775088
63	0xbe105ed8	-0.1409868
64	0x3cadf788	0.021236196
65	0x3d1f740c	0.03892903
66	0xbdcb6e76	-0.09933178
67	0xbd54317c	-0.051805004
68	0x3d034976	0.03205248
69	0xbd78b7f9	-0.060722325
70	0x3e0281d5	0.1274484
71	0xbc504a60	-0.012713045
72	0x3ce04209	0.027375238
73	0xbdd9356b	-0.10605892
74	0xbd382007	-0.04495242
75	0x3d3c97b1	0.0460431
76	0xbc5e0350	-0.013550594
77	0x3d909f2e	0.07061611
78	0x3d995a0a	0.07487877
79	0x3d718aa0	0.058970094
80	0xbd01b1da	-0.031663753
81	0xbc13ec5f	-0.009028523
82	0x3d203242	0.03911043
83	0xbd1efceb	-0.03881542
84	0xbd290c5a	-0.041271545
85	0x3d932d9e	0.07186435
86	0xbdd59fd0	-0.104308724
87	0xbe589fae	-0.21154663
88	0xbe34cc04	-0.17655951
89	0x3ce24740	0.027621865
90	0x3de4c47a	0.111702874
91	0xbd919ff8	-0.0711059
92	0xbdb4de64	-0.0883148
93	0x3d31da94	0.043421343
94	0xbe051b0b	-0.12998597
95	0xbd41eb80	-0.04734373
96	0xbd58e1e1	-0.05294979
97	0xbdeac5de	-0.114635214
98	0xbdc818e0	-0.097703695
99	0x3d8622aa	0.065495804
100	0xbe092842	-0.13394263
101	0xbddb6ae4	-0.10713747
102	0xbdbf2f65	-0.09335212
103	0xbd992a71	-0.07478798
104	0x3e25c84d	0.1618969
105	0x3d284847	0.041084554
106	0xbe533306	-0.20624933
107	0xbd2ce364	-0.042209044
108	0x3db55cd2	0.08855595
109	0xbb8439e6	-0.0040352223
110	0x3de31c84	0.11089423
111	0xbdaa8a9b	-0.08327218
112	0x3e08f182	0.13373378
113	0xbe2bce22	-0.16777852
114	0xbcc04e18	-0.023474738
115	0xbd3714ed	-0.04469769
116	0xbd395ca7	-0.045254376
117	0xbd8f0c7e	-0.069848046
118	0xbdf0a9f6	-0.117511675
119	0x3e349aa7	0.1763712
120	0xbd35f001	-0.04441834
121	0xbe56a9d3	-0.2096322
122	0x3e0997fb	0.13436882
123	0xbd936b6b	-0.07198223
124	0x3de508de	0.11183332
125	0xbe3db87c	-0.18527406
126	0x3da71841	0.08158923
127	0x3cb6f0b6	0.022331577
128	0xbe3060ae	-0.1722438
129	0x3d98c5f9	0.07459635
130	0x3da01b89	0.07817752
131	0xbe77336c	-0.2414071
132	0x3e5ca1ae	0.21546051
133	0x3e6708d4	0.22561961
134	0x3e5bdc34	0.2147072
135	0xbe138896	-0.14407572
136	0xbc87b4bb	-0.016565671
137	0x3e0c6315	0.13709672
138	0xbcce507b	-0.02518486
139	0xbbbeba60	-0.0058205575
140	0x3de7318f	0.112887494
141	0x3d335220	0.043779492
142	0xbe4aae7d	-0.19793124
143	0xbdf381e3	-0.11890008
144	0xbead451e	-0.33841795
145	0x3e0d332f	0.13789056
146	0x3e0f05d0	0.13967061
147	0x3e27c5b1	0.16384007
148	0xbdb14ab7	-0.08656829
149	0xbe0528e3	-0.13003878
150	0x3e218c65	0.15776213
151	0x3e42d00c	0.19024676
152	0x3e24d7fe	0.1609802
153	0x3e08a31f	0.13343476
154	0x3d82f86d	0.0639504
155	0x3dfc447f	0.12317752
156	0x3d122a03	0.035684597
157	0x3d928b6a	0.07155497
158	0x3e34fca8	0.17674506
159	0xbe8d4131	-0.275888
160	0x3e0a5013	0.13507108
161	0x3b924f73	0.0044650375
162	0x3d36a25d	0.044588435
163	0xbe765233	-0.24054794
164	0xbe0815d4	-0.13289577
165	0xbd2f8cb4	-0.042858794
166	0xbd68dcd2	-0.056851216
167	0xbe1c90c2	-0.15289596
168	0x3e2850ed	0.1643712
169	0x3e6bfaf0	0.23044944
170	0x3e6cdbbe	0.231307
171	0x3df119a6	0.1177247
172	0xbe5a7124	-0.21332222
173	0xbe1b2d80	-0.15154076
174	0xbd21a0a8	-0.039459854
175	0x3e9d5095	0.30725542
176	0x3de03e92	0.10949434
177	0xbd74a3f2	-0.059726663
178	0xbdd17e01	-0.102291115
179	0xbd846745	-0.064650096
180	0xbdf9f727	-0.12205344
181	0x3e2b6abd	0.16739936
182	0xbd87ea71	-0.06636513
183	0x3db56197	0.088565044
184	0xbe74ff87	-0.23925601
185	0xbdb1a133	-0.086733244
186	0xbea4ead6	-0.32210416
187	0x3e16c794	0.1472457
188	0x3ecc452f	0.39896533
189	0xbe12e90d	-0.14346714
190	0x3e2b5025	0.16729791
191	0x3cc2f0c8	0.023796454
192	0x3e0f4eff	0.13994978
193	0x3e5303b9	0.20606889
194	0x3e13c725	0.14431436
195	0x3e9d719d	0.30750743
196	0x3de53b99	0.11193008
197	0x3db56095	0.08856312
198	0x3d912b12	0.07088293
199	0x3c985fd0	0.018600374
200	0xbca90a28	-0.020634726
201	0xbe3028f0	-0.17203116
202	0x3d31b69b	0.043387037
203	0xbd8a3e82	-0.06750204
204	0x3d62b658	0.055349678
205	0xbe267e32	-0.16259077
206	0x3e7a1b69	0.24424519
207	0x3d7586a0	0.05994284
208	0xbddef98c	-0.10887441
209	0xbe61ca8e	-0.22049925
210	0x3e16c4bf	0.1472349
211	0x3d9d4b41	0.07680369
212	0x3e9cd524	0.30631363
213	0xbd003681	-0.03130198
214	0x3db3b5ea	0.08774932
215	0xbce3e6fb	-0.027820101
216	0xbd833ff0	-0.064086795
217	0xbd9f4e79	-0.07778639
218	0xbd819184	-0.06326583
219	0x3c38b754	0.011274178
220	0xbd51f7c8	-0.051261693
221	0x3b16942c	0.00229765
222	0xbcf86f50	-0.030326515
223	0xbcfe30ba	-0.031029094
224	0xbdfda98e	-0.123858556
225	0xbd91333c	-0.0708985
226	0xbe47db9b	-0.19517367
227	0x3f39e02f	0.726077
228	0x3e5430af	0.20721696
229	0xbe27b10a	-0.16376129
230	0xbdfba004	-0.1228638
231	0x3e8b0424	0.27151597
232	0x3e80b211	0.25135854
233	0x3d3f84cb	0.0467575
234	0x3e8367ae	0.2566504
235	0x3e070474	0.13185292
236	0xbdacf4bb	-0.08445116
237	0x3ebca557	0.36844894
238	0x3c9c2e02	0.019064907
239	0x3dffc4d1	0.124887116
240	0x3d192c11	0.03739554
241	0x3e933a04	0.287552
242	0xbdc0baa4	-0.09410599
243	0xbe254511	-0.16139628
244	0xbea6c094	-0.325688
245	0x3e1be67f	0.15224646
246	0x3db48d80	0.088160515
247	0x3dd2acb2	0.10286845
248	0xbda6c0a1	-0.0814221
249	0xbd7fecd3	-0.062481713
250	0xbd017012	-0.03160102
251	0xbe3c432f	-0.18385004
252	0xbdc57c4d	-0.09642849
253	0xbd54ce35	-0.051954467
254	0xbe1c2bb9	-0.15251054
255	0xbe7dddf2	-0.24791697

sequential_2/dense_8/MatMul f4 [25, 64]
0	0xbd8597ab	-0.06523069
1	0x3ebdc705	0.37065902
2	0xbf81028f	-1.0078906
3	0xbf8c6f4f	-1.0971469
4	0xbede2733	-0.43389282
5	0xbe6b0c72	-0.22953966
6	0x3e8118ce	0.25214237
7	0xbe014199	-0.1262268
8	0xbda3a3be	-0.07990216
9	0x3d743208	0.059618026
10	0xbee5b27d	-0.44862738
11	0x3e327941	0.17429067
12	0x3df63124	0.120210916
13	0xbe39c336	-0.18140873
14	0x3f1aef19	0.60521084
15	0xbf647dfe	-0.8925475
16	0xbcfa804e	-0.030578759
17	0xbe331739	-0.17489327
18	0x3c68e8e2	0.01421568
19	0xbe35af6a	-0.17742696
20	0xbd065207	-0.03279307
21	0x3e74271e	0.23843047
22	0x3bae34fb	0.0053163744
23	0x3e71040a	0.23536697
24	0xbe04ab75	-0.1295603
25	0x3e0147ed	0.12625094
26	0xbfd738a7	-1.6814164
27	0x3e0bf80c	0.13668841
28	0xbfa38346	-1.2774436
29	0xbfac05a3	-1.343922
30	0x3ea75c9e	0.3268785
31	0x3e2b7b2f	0.1674621
32	0xbfa603d0	-1.2969913
33	0x3ea6ac31	0.32553247
34	0xbec2eced	-0.38071385
35	0x3e25bcd5	0.16185315
36	0x3d939668	0.07206422
37	0xbe254017	-0.1613773
38	0x3e59d104	0.2127114
39	0xbe5bb4ac	-0.2145564
40	0x3e674c0b	0.22587602
41	0x3e84efa2	0.25964075
42	0xbe4ea61f	-0.20180558
43	0xbc584c90	-0.013201848
44	0x3d5a0392	0.05322606
45	0xbe4da67f	-0.20083044
46	0x3c29315e	0.010326711
47	0xbf1d5111	-0.6145182
48	0x3eb40ba9	0.35165146
49	0xbdde0d66	-0.10842399
50	0xbda2be2f	-0.07946431
51	0xbda966d2	-0.082715645
52	0xbef5359b	-0.4789246
53	0x3e33de17	0.1756519
54	0xbe8c3f46	-0.27392024
55	0xbf4d407c	-0.8017652
56	0xbec0302b	-0.3753675
57	0xbe7737f5	-0.2414244
58	0xbdfb6362	-0.12274815
59	0x3e2701b0	0.16309237
60	0x3d990890	0.07472336
61	0x3e943e25	0.28953663
62	0xbdae6a2b	-0.08516344
63	0xbe88a87d	-0.26691046
64	0xbd96bc22	-0.07360102
65	0x3e6fe4ab	0.23427074
66	0xbe8c787a	-0.27435666
67	0x3ea7c812	0.3276983
68	0x3e16f8d4	0.14743358
69	0x3e6e7888	0.23288167
70	0xbf077585	-0.52913696
71	0xbf9b4a3b	-1.2132028
72	0x3dba6b40	0.091024876
73	0x3d4ec376	0.050479375
74	0xbf9e2dec	-1.2357764
75	0xbe29229e	-0.16517112
76	0x3e9eecfc	0.3104018
77	0x3e5feb4b	0.21867101
78	0xbf77591f	-0.96620363
79	0x3d43cab0	0.04780072
80	0xbfd0b82f	-1.6306208
81	0x3ea4d7d3	0.3219591
82	0x3e676eba	0.22600833
83	0xbd74e4c0	-0.059788465
84	0xbdd3d912	-0.10344137
85	0xbd9e48f9	-0.07728762
86	0xbf9fa52c	-1.2472281
87	0xbf55dfa1	-0.83544356
88	0x3f096db0	0.53682995
89	0x3de2ffbd	0.110839345
90	0x3e4c9421	0.19978382
91	0xbe89d615	-0.26921144
92	0x3e615bd4	0.22007686
93	0x3e9cf656	0.3065669
94	0xbf96af38	-1.1772223
95	0x3dd40a27	0.10353499
96	0xbe39393f	-0.18088244
97	0x3d7659f9	0.0601444
98	0xbecdc3dc	-0.4018849
99	0xbf8a7dad	-1.0819603
100	0xbf7ebea9	-0.99509674
101	0x3ea988a0	0.3311205
102	0xbf5f94b6	-0.8733629
103	0xbf8bb50c	-1.0914626
104	0xbe89b3b2	-0.2689491
105	0x3ed01c00	0.40646362
106	0xbd283612	-0.04106719
107	0x3cac50ff	0.021034716
108	0xbd02e976	-0.031960927
109	0xbe7d6e83	-0.24749188
110	0x3d862928	0.06550819
111	0xbe2d2d27	-0.16911756
112	0xbd57f1a2	-0.052720673
113	0x3de949c9	0.113910265
114	0xbe4cd679	-0.2000369
115	0x3cbc2910	0.022968799
116	0x3e86af69	0.26305702
117	0x3e97dca7	0.29660532
118	0x3e66dc8d	0.22545071
119	0x3e4605bb	0.19338124
120	0x3e80aa11	0.2512975
121	0x3cf4b025	0.029869149
122	0x3e012d8d	0.12615032
123	0xbeab3ba6	-0.33443946
124	0xbdf23f35	-0.11828462
125	0xbe2b5661	-0.1673217
126	0xbfbf68f2	-1.4953902
127	0x3a534250	0.00080588926
128	0xbd43a319	-0.047762964
129	0x3e471093	0.19439916
130	0xbe067532	-0.13130644
131	0xbd98f4dc	-0.07468578
132	0xbf00142c	-0.5003078
133	0xbe72ea2f	-0.23722146
134	0xbe5c732b	-0.21528308
135	0xbf043842	-0.5164834
136	0xbda289ac	-0.07936415
137	0x3e95e09c	0.29272926
138	0x3f5dd38c	0.8665092
139	0x3d2bd9f5	0.041955907
140	0x3ea6fbca	0.32613975
141	0x3d52cbc2	0.05146385
142	0xbeb9d1bc	-0.36292827
143	0xbecb5647	-0.39714262
144	0x3e85b047	0.2611105
145	0xbe0fa3b9	-0.14027299
146	0x3e6874fc	0.22700876
147	0xbe80c7b8	-0.25152373
148	0xbd990a8e	-0.07472716
149	0xbe0a30c6	-0.13495168
150	0x3eaaa3c4	0.33328068
151	0xbef7990e	-0.4835896
152	0xbdbe7405	-0.09299473
153	0x3e245acc	0.16050261
154	0xbed0b64a	-0.40764076
155	0xbdca36fa	-0.09873767
156	0x3d2e370b	0.04253296
157	0xbe063206	-0.1310502
158	0x3e2ab505	0.16670616
159	0xbd65cf55	-0.05610593
160	0xbf4ceaba	-0.80045664
161	0x3e2e2b33	0.17008667
162	0x3f0b6378	0.5444865
163	0xbd09ba7a	-0.033625104
164	0xbf5ec947	-0.87025875
165	0xbec03602	-0.37541205
166	0x3eb48dc7	0.35264418
167	0xbd6a06ac	-0.05713527
168	0xbd5ab007	-0.05339053
169	0x3e33511d	0.17511411
170	0x3e93fe8a	0.28905135
171	0x3c58720a	0.013210783
172	0xbceab9a8	-0.02865298
173	0x3f290c84	0.6603472
174	0xbe603b3a	-0.21897593
175	0xbebf10ab	-0.37317404
176	0x3de12c9f	0.10994839
177	0xbe7f65c8	-0.2494117
178	0x3e4a84f9	0.19777288
179	0x3d9d28d8	0.07673806
180	0x3ebe0aae	0.37117523
181	0xbe0cd646	-0.13753614
182	0xbd6516d2	-0.055929966
183	0xbdf2f1ec	-0.11862549
184	0x3cbd7cd6	0.023130815
185	0xbcfbaea3	-0.030722922
186	0x3cf782a3	0.03021366
187	0x3e400d75	0.18755133
188	0x3e66dbd9	0.22544803
189	0x3eb23a72	0.34810215
190	0xbf345c9d	-0.70453817
191	0xbd7d0d7e	-0.061780445
192	0x3e34687a	0.1761798
193	0xbf1cdef5	-0.61277705
194	0x3e9da50b	0.3078998
195	0x3e1ecc6f	0.15507673
196	0xbe0e8036	-0.13916096
197	0xbe84a7fa	-0.25909406
198	0x3ef9478b	0.48687395
199	0x3ed88fdc	0.42297256
200	0xbd9b7f68	-0.0759266
201	0xbe6ab815	-0.22921784
202	0x3d9f4b87	0.077780776
203	0xbce4a28c	-0.02790954
204	0xbf18052b	-0.59382886
205	0xbff143b8	-1.8848791
206	0xbccb52ad	-0.024819696
207	0xbde85a56	-0.11345355
208	0x3e6b30e8	0.22967875
209	0x3eb518b4	0.3537041
210	0x3c903a3b	0.017605891
211	0x3d532270	0.051546514
212	0xbf35c932	-0.71010125
213	0x3a2fa40e	0.0006700166
214	0xbd691884	-0.056908146
215	0x3e187a48	0.14890397
216	0x3ea93669	0.33049324
217	0x3e0e447e	0.13893315
218	0x3de74ad6	0.11293571
219	0x3f9a3c7f	1.2049712
220	0x3e42dd2d	0.19029684
221	0x3d9a014c	0.075197786
222	0x3e5e87e6	0.21731529
223	0x3e53393d	0.20627303
224	0xbe401657	-0.18758522
225	0x3bf16c86	0.0073676733
226	0x3edf7028	0.43640256
227	0xbd8aa593	-0.06769862
228	0x3db42810	0.08796704
229	0xbd18bd31	-0.037289802
230	0xbdb2cfcc	-0.0873104
231	0xbf6bdbc8	-0.92132235
232	0x3e7ab080	0.24481392
233	0xbfaabf03	-1.3339542
234	0xbd87da44	-0.06633428
235	0x3e7d9d3b	0.2476701
236	0xbd194ed0	-0.037428677
237	0xbf0e9beb	-0.5570666
238	0xbe3ba077	-0.18322931
239	0x3e7540ad	0.23950453
240	0xbeb1a05e	-0.34692663
241	0x3e1155a3	0.14192824
242	0xbd2b9b5e	-0.041896217
243	0xbe16082d	-0.14651556
244	0xbf268583	-0.6504747
245	0xbe928a5a	-0.2862118
246	0x3e4c206f	0.19934247
247	0x3e821c84	0.2541238
248	0xbf62fbe4	-0.88665605
249	0x3e981737	0.29705212
250	0xbe08acaa	-0.13347116
251	0xbec6a13d	-0.3879489
252	0x3df4d724	0.11955097
253	0xbf3ebefa	-0.7451016
254	0xbecc5bd8	-0.3991382
255	0xbdc06b29	-0.09395439
