app/src/main/assets/keypoints_to_pose_classifier_v4_21_poses.tflite (tflite, 67232 bytes, 6 tensors)

sequential_2/dense_8/BiasAdd/ReadVariableOp f4 [21]
0.031553723 0.0008581741 0.047312442 -0.011379943 -0.022641944 0.0026604168 0.020010741 -0.016701039
0.031338643 0.045486726 -0.034302577 -0.026369048 -0.052855108 -0.050165027 -0.0400604 0.05935761
-0.063613914 0.01467157 0.115177915 -0.05340435 -0.005897133
00000000: 7a3e 013d 17f7 603a b1ca 413d f172 3abc
00000010: 997b b9bc 635a 2e3b 91ed a33c 9ed0 88bc
00000020: f35c 003d 4a50 3a3d dc80 0cbd e703 d8bc
00000030: 997e 58bd d879 4dbd 6016 24bd f720 733d
00000040: 0348 82bd 0661 703c 66e2 eb3d 85be 5abd
00000050: bd3c c1bb

sequential_2/dense_7/BiasAdd/ReadVariableOp f4 [64]
0.05476305 -0.027139874 0.035154887 0.07295945 0.08277623 0.0 0.015316531 -0.043745402
-0.084507145 0.09052509 0.061709758 -0.014969388 -0.008800273 0.09794716 0.019043952 -0.029600672
0.0 0.041604348 0.07463334 0.116669364 0.06176404 0.1438396 -0.0041634757 -0.0080185635
0.071528755 -0.0051817102 -0.009683506 -0.011178752 -0.030020854 -0.010485007 0.0 0.0052906396
0.03586859 -0.014724023 -0.016545022 0.0734329 -0.07971516 -0.059449162 -0.0078759175 0.027724968
-0.01555032 0.01713691 0.08076018 -0.018818486 0.011305155 -0.042715188 0.054172106 -0.015902264
0.0 -0.035847053 0.053300872 0.0 0.021339169 -0.026024329 0.0 0.021024026
0.045152597 0.03322563 -0.06496255 0.027554113 -0.01175374 -0.021489512 0.02605039 -0.06036232
00000000: 384f 603d 7154 debc 92fe 0f3d c46b 953d
00000010: 9686 a93d 0000 0000 30f2 7a3c 612e 33bd
00000020: 1512 adbd 3865 b93d 5fc3 7c3d 2a42 75bc
00000030: 052f 10bc 8598 c83d 1002 9c3c 1c7d f2bc
00000040: 0000 0000 5269 2a3d 5dd9 983d 59f0 ee3d
00000050: 4afc 7c3d b04a 133e c46d 88bb 4b60 03bc
00000060: ab7d 923d 56cb a9bb 91a7 1ebc 1627 37bc
00000070: 4bee f5bc 4fc9 2bbc 0000 0000 1a5d ad3b
00000080: f1ea 123d 073d 71bc 6d89 87bc fd63 963d
00000090: b441 a3bd f780 73bd fe09 01bc 791f e33c
000000a0: c5c6 7ebc b562 8c3c 9865 a53d 3a29 9abc
000000b0: 4239 393c 1ff6 2ebd 92e3 5d3d 7745 82bc
000000c0: 0000 0000 5cd4 12bd 0452 5a3d 0000 0000
000000d0: 7bcf ae3c f930 d5bc 0000 0000 943a ac3c
000000e0: eef1 383d 9917 083d 160b 85bd 2ab9 e13c
000000f0: c292 40bc c60a b0bc a167 d53c 7b3e 77bd

sequential_2/dense_6/BiasAdd/ReadVariableOp f4 [128]
-0.005756622 0.10031528 0.06679583 0.10519957 0.070162795 0.10489839 -0.05660999 0.04316527
-0.11317482 0.0 0.083337784 -0.0006678966 0.02066908 -0.0012383534 -0.0064106695 0.0
0.05164976 0.051074583 -0.007147827 0.066998035 0.0 -0.019702816 0.056907322 0.0
-0.04810681 0.041306525 -0.009488551 0.07052078 0.022872835 0.06423504 -0.009385311 0.07673452
0.067737125 0.0 -0.044472124 0.0 0.087107845 -0.01291463 0.1329334 -0.014217245
0.015634019 0.0 0.0047182296 0.0 0.14716545 -0.018272515 0.07011447 -0.07461917
0.0 -0.074282795 0.0 -0.015900722 -0.0076166186 -0.030376133 0.09137183 0.13288866
0.019751543 0.0 -0.0051510823 0.06674261 0.01970975 0.0 0.12710379 0.0055264523
0.06586817 0.0 -0.021359507 0.04577321 0.07971217 0.032188524 -0.016319541 0.043666575
0.003053076 0.0 -0.06901113 -0.017016716 -0.030967336 0.0 -0.012261412 -0.013232802
0.0 -0.0059970994 0.0 0.0 -0.0055419123 -0.05393961 0.028826065 0.073745765
-0.072429255 0.047421914 -0.05459069 -0.12351025 -0.012581364 0.00071919046 0.026677117 -0.022536201
-0.009288152 0.04326872 0.0 0.054800216 -0.012658913 -0.06809827 -0.0034211844 0.034073163
0.009781912 0.11781841 0.024799896 0.0687284 0.017527303 0.0 0.07784872 0.038988262
0.023233086 -0.0076363366 0.09518195 -0.04580262 0.06411926 -0.054436278 0.0 0.06968249
0.02291837 0.0 0.055414714 0.0 -0.0015974854 0.025937 0.06480993 0.016901746
00000000: 0ca2 bcbb 1972 cd3d 41cc 883d df72 d73d
00000010: 83b1 8f3d f8d4 d63d e0df 67bd 11ce 303d
00000020: 33c8 e7bd 0000 0000 00ad aa3d c815 2fba
00000030: 3452 a93c 3f50 a2ba 9810 d2bb 0000 0000
00000040: b38e 533d 9533 513d 5238 eabb 4436 893d
00000050: 0000 0000 cd67 a1bc a717 693d 0000 0000
00000060: a50b 45bd 0831 293d de75 1bbc 336d 903d
00000070: d05f bb3c a98d 833d d9c4 19bc fd26 9d3d
00000080: c3b9 8a3d 0000 0000 6728 36bd 0000 0000
00000090: 9965 b23d e297 53bc b11f 083e 73ef 68bc
000000a0: ea12 803c 0000 0000 619b 9a3b 0000 0000
000000b0: 8ab2 163e 3eb0 95bc 2d98 8f3d efd1 98bd
000000c0: 0000 0000 9421 98bd 0000 0000 3b42 82bc
000000d0: d494 f9bb 5ed7 f8bc 2721 bb3d f713 083e
000000e0: fdcd a13c 0000 0000 69ca a8bb 59b0 883d
000000f0: 5776 a13c 0000 0000 7f27 023e 3e17 b53b
00000100: e4e5 863d 0000 0000 22fa aebc b07c 3b3d
00000110: 2240 a33d 1dd8 033d 8fb0 85bc b9db 323d
00000120: 1e16 483b 0000 0000 b555 8dbd a466 8bbc
00000130: 36af fdbc 0000 0000 17e4 48bc 65ce 58bc
00000140: 0000 0000 5183 c4bb 0000 0000 0000 0000
00000150: ee98 b5bb c8ef 5cbd a424 ec3c 0508 973d
00000160: ca55 94bd 7b3d 423d 7d9a 5fbd f1f2 fcbd
00000170: 1122 4ebc 0e88 3c3a f889 da3c d79d b8bc
00000180: 552d 18bc 8b3a 313d 0000 0000 3176 603d
00000190: 5467 4fbc 1b77 8bbd f335 60bb 4d90 0b3d
000001a0: 5044 203c c74a f13d 2729 cb3c 7ac1 8c3d
000001b0: 6b95 8f3c 0000 0000 266f 9f3d 28b2 1f3d
000001c0: 5053 be3c 3c3a fabb c1ee c23d 879b 3bbd
000001d0: f550 833d 93f8 5ebd 0000 0000 b1b5 8e3d
000001e0: 4ebf bb3c 0000 0000 8afa 623d 0000 0000
000001f0: b762 d1ba d579 d43c 12bb 843d 8875 8a3c

sequential_2/dense_6/MatMul f4 [128, 51]
-0.02221944 0.055600964 -0.016357869 -0.13455713 -0.1764018 -0.009700456 0.07245079 -0.15081833
0.038267776 -0.1190601 0.14764026 0.117986634 -0.026563063 -0.1128685 -0.042372856 -0.06809145
0.022517394 0.020505747 0.121513255 -0.1309136 0.041522607 0.029487625 0.1268482 0.016447067
0.015924972 -0.06309241 -0.18097895 -0.17458646 -0.038162064 -0.103590265 0.032523185 -0.15215716
-0.12690428 0.070415765 0.16855346 -0.18091187 0.13740495 0.1091367 0.03618689 -0.17248482
-0.1571215 -0.08514614 0.008205592 -0.15201907 0.019172978 0.038401335 0.14955299 -0.18328747
0.042438343 -0.103910394 0.14680213 0.09022875 0.022204103 0.18765771 0.02602586 0.07946151
0.15678293 0.19919576 0.053308662 -0.108161025 0.052156746 0.0370773 -0.08705381 0.03610346
-0.17849629 0.13116172 -0.0927904 -0.019102186 0.13533981 -0.22364084 0.016543882 0.21182694
-0.3632913 0.26630175 0.017941853 -0.04728279 -0.16525629 -0.1430862 -0.19759983 0.19261044
0.039082695 -0.2910036 0.028572215 0.15150028 -0.12895672 0.021743346 -0.019955063 -0.07636201
0.18921606 0.20810615 -0.22288516 0.12508924 0.035696946 -0.039414488 0.066724844 0.050053462
0.037018813 -0.14967382 0.098039076 -0.07619445 0.22289887 0.09074603 0.07217342 -0.004858568
-0.045574874 0.3619717 -0.1866019 -0.05251933 0.29482892 -0.091393456 -0.014794171 0.03252163
0.0382792 0.009484064 0.124531016 -0.033588726 0.18742076 0.007041172 0.05555874 0.039801847
-0.007961678 -0.1403198 0.19500296 -0.17190123 0.006854139 0.054386314 0.057741106 -0.1566251
0.07574752 0.15278384 0.24353206 0.26654595 0.0014185009 -0.34553206 0.07541694 0.18922004
-0.18066148 0.013806561 -0.038093764 0.11935122 0.15546012 -0.21704684 0.27255383 0.10992138
-0.16778181 0.112865634 -0.11742047 0.026330572 0.21190295 -0.007641606 0.11350986 0.26759502
0.24468084 -0.11364941 0.18317173 -0.09120017 -0.18628682 -0.12500967 0.10635237 -0.08183219
0.04511664 0.19993837 -0.23104472 0.016926624 0.3381448 -0.19203545 0.072408706 0.049148705
-0.32572907 -0.08733785 0.050266296 -0.09298524 0.19926399 -0.047881447 0.31580153 0.21028416
0.051975 0.15271404 0.047185447 -0.03406557 0.3572654 0.16675133 0.01622496 0.38138205
0.082407944 -0.14730082 -0.13988012 0.09810467 0.18210839 -0.047654435 0.1757107 -0.014377571
0.22166272 0.049422484 -0.18545042 -0.06613042 0.22118284 -0.18704152 -0.21881007 -0.26122725
0.04031936 -0.23106888 0.04470427 0.030328829 -0.022261271 -0.11149594 0.13530526 -0.05633834
-0.028713776 -0.14118429 -0.023530276 -0.06346837 0.011103467 -0.14234528 0.050222088 0.16745505
-0.32196367 0.14634746 0.25668046 -0.12777469 0.183374 0.0550163 -0.031662736 -0.026337178
0.09448476 0.15782697 0.068312466 0.072174996 -0.1705785 0.02195718 -0.109068684 -0.01626835
0.19102885 0.073063985 -0.22391792 -0.12703663 0.054113798 0.36863506 -0.07584998 0.28777748
0.33649498 0.19526863 0.16214038 -0.25206405 -0.053261217 0.06607564 -0.017028263 -0.108383484
0.16678044 -0.42652997 -0.16947196 0.18344294 -0.33693892 0.18322605 0.13446106 -0.15670165
00000000: 8b05 b6bc d6bd 633d f000 86bc 58c9 09be
00000010: aca2 34be a9ee 1ebc 1461 943d 1f70 1abe
00000020: acbe 1c3d c8d5 f3bd 022f 173e faa2 f13d
00000030: c89a d9bc 9a27 e7bd 298f 2dbd 8873 8bbd
00000040: 6676 b83c abfb a73c f1db f83d 370e 06be
00000050: 9c13 2a3d 0890 f13c 7fe4 013e 00bc 863c
00000060: 1675 823c 9836 81bd 8c52 39be cbc6 32be
00000070: d34f 1cbd 2227 d4bd 0837 053d 16cf 1bbe
00000080: 32f3 01be 2436 903d 4799 2c3e f640 39be
00000090: e2b3 0c3e 1083 df3d b438 143d dc9f 30be
000000a0: 75e4 20be 1961 aebd bf70 063c e3aa 1bbe
000000b0: a610 9d3c b84a 1d3d 6b24 193e b6af 3bbe
000000c0: d4d3 2d3d f9ce d4bd 4c53 163e dac9 b83d
000000d0: 61e5 b53c 5829 403e 2f34 d53c b7bc a23d
000000e0: b48b 203e f9f9 4b3e 2f5a 5a3d 8783 ddbd
000000f0: 50a2 553d 5ede 173d 4549 b2bd 39e1 133d
00000100: bbc7 36be 424f 063e e508 bebd 307c 9cbc
00000110: 8596 0a3e 1b02 65be 0987 873c 29e9 583e
00000120: 5101 babe b458 883e cbfa 923c 99ab 41bd
00000130: f238 29be 3085 12be 9c57 4abe ac3b 453e
00000140: 2d15 203d 6dfe 94be 4710 ea3c e422 1b3e
00000150: 3b0d 04be 1a1f b23c cd78 a3bc af63 9cbd
00000160: dbc1 413e c719 553e 023c 64be 6517 003e
00000170: f636 123d 1671 21bd 09a7 883d dc04 4d3d
00000180: 0aa1 173d 1844 19be b6c8 c83d d60b 9cbd
00000190: 9a3f 643e 0ed9 b93d a8cf 933d 9f34 9fbb
000001a0: b8ac 3abd 5b54 b93e 9214 3fbe 821e 57bd
000001b0: d1f3 963e 7e2c bbbd 4063 72bc 6735 053d
000001c0: a7ca 1c3d 0c63 1b3c 1e0a ff3d 5594 09bd
000001d0: 3aeb 3f3e a2b9 e63b 9091 633d 4307 233d
000001e0: b371 02bc feaf 0fbe dbae 473e e006 30be
000001f0: af98 e03b 2fc4 5e3d f081 6c3d 5562 20be
00000200: 8421 9b3d 5e73 1c3e 7860 793e b678 883e
00000210: feec b93a 94e9 b0be 3274 9a3d e6c2 413e
00000220: 53ff 38be ea34 623c 3508 1cbd 6a6e f43d
00000230: f030 1f3e 8741 5ebe 2d8c 8b3e 761e e13d
00000240: ffce 2bbe 1926 e73d 257a f0bd 36b3 d73c
00000250: 16fd 583e 7066 fabb dc77 e83d 3702 893e
00000260: 9d8d 7a3e 06c1 e8bd 5f91 3b3e 28c7 babd
00000270: f9c1 3ebe 8902 00be 45cf d93d a397 a7bd
00000280: 3acc 383d a5bc 4c3e fd96 6cbe b4a9 8a3c
00000290: 5121 ad3e f1a4 44be 044b 943d 2750 493d
000002a0: f6c5 a6be 30de b2bd 08e4 4d3d 0c6f bebd
000002b0: dc0b 4c3e 561f 44bd bdb0 a13e bb54 573e
000002c0: bde3 543d 1261 1c3e 8745 413d 5788 0bbd
000002d0: 7eeb b63e dcc0 2a3e 35ea 843c 8244 c33e
000002e0: 7fc5 a83d 07d6 16be bc3c 0fbe 1aeb c83d
000002f0: 9f7a 3a3e 4c31 43bd 81ed 333e e78f 6bbc
00000300: 8dfb 623e 3b6f 4a3d b7e6 3dbe 636f 87bd
00000310: c17d 623e d087 3fbe bf0f 60be 94bf 85be
00000320: ea25 253d 529d 6cbe d31b 373d 2a74 f83c
00000330: 455d b6bc fc57 e4bd 768d 0a3e 08c3 66bd
00000340: 2739 ebbc 9d92 10be 91c2 c0bc b4fb 81bd
00000350: 51eb 353c f6c2 11be adb5 4d3d 5679 2b3e
00000360: 6cd8 a4be 1cdc 153e 9f6b 833e 5ed7 02be
00000370: 65c6 3b3e c658 613d c9b0 01bd 11c1 d7bc
00000380: 3a81 c13d 659d 213e 68e7 8b3d 7cd0 933d
00000390: 21ac 2ebe 8bdf b33c 675f dfbd 3445 85bc
000003a0: 119d 433e 92a2 953d bd4a 65be e415 02be
000003b0: 6ea6 5d3d bcbd bc3e 3c57 9bbd 9257 933e
000003c0: 1249 ac3e 80f4 473e 2108 263e 8a0e 81be
000003d0: 6f28 5abd aa52 873d db7e 8bbc 29f8 ddbd
000003e0: 7ec8 2a3e 2362 dabe 0f8a 2dbe 77d8 3b3e
000003f0: 4283 acbe 9c9f 3b3e 29b0 093e 6676 20be

sequential_2/dense_7/MatMul f4 [64, 128]
-0.03146848 0.015157423 0.0631392 -0.07383994 0.040068474 -0.029907595 -0.20797177 -0.010708883
0.051508594 0.08899371 -0.027224993 0.0821584 -0.014194885 0.1175618 -0.19669235 -0.13051969
0.060380176 -0.10377252 0.16484141 -0.0063854195 0.028533295 -0.16008826 -0.1201675 0.061161444
0.03381675 -0.123302884 0.061590794 0.21459615 0.10706549 0.04673723 0.16920179 -0.10549004
0.20959072 -0.13198838 0.26695466 0.108766094 0.12670979 0.17541546 0.47683552 -0.15766008
0.021748152 -0.08037189 -0.14944114 0.048399717 -0.11184844 -0.17868268 0.04622262 -0.19426814
0.11673708 -0.24747139 0.10547747 0.15056191 -0.15339515 -0.084368184 0.39076772 -0.14144337
-0.17419928 0.1637639 0.12849675 0.07901857 -0.16368249 -0.10306565 0.2857751 0.04471778
-0.11961356 -0.06691946 0.01934701 0.029241106 0.13268279 0.03039055 -0.07746091 0.07336383
-0.2675751 -0.00869818 0.1522346 -0.29235741 0.024387088 0.011828139 0.098306656 0.032305796
0.044754177 0.053951174 0.13617398 0.046946272 0.14309265 -0.27911928 0.24608226 0.16986282
0.032740194 0.18234608 0.36004075 0.023200823 0.09002769 -0.16458133 0.3319005 0.051809274
0.15730177 0.14343421 0.055804327 0.39013585 0.15656403 -0.43131012 0.002995267 0.071155675
-0.17969714 0.008180954 0.16350706 0.09988056 -0.06822247 0.1646099 -0.11123207 0.017363062
0.022408364 0.16668548 0.31032443 -0.29762042 0.25979543 -0.16657016 0.0016700327 0.10316883
0.1785828 -0.113952346 0.22857395 0.049985155 -0.05259264 0.13646246 0.075331114 -0.10469816
0.07364745 0.19392875 0.38662368 -0.10735216 -0.1456612 0.10987424 0.1739421 0.20157197
-0.10219882 -0.14455754 -0.00602381 0.30133536 0.18050602 -0.6140183 -0.24214481 0.046911344
-0.16885237 -0.06784192 -0.13560396 0.0035405413 0.10724877 -0.12072161 -0.11867079 -0.17555991
-0.17406306 0.06870971 -0.070034534 -0.14422005 -0.03682403 0.14156102 0.036364265 -0.20630392
0.014706406 -0.09294834 0.24552733 0.046241075 0.21837671 0.11244247 0.22920017 -0.1249375
0.14601088 0.04767853 -0.16275728 -0.10146082 -0.08302038 0.10819903 0.07238467 -0.18711688
0.121731564 -0.16247486 -0.03386824 0.07981829 0.032052547 -0.08132176 0.025687983 0.20677045
-0.14600006 0.058945358 0.13573642 0.019419193 0.012338143 0.14004226 0.0029497393 -0.59043896
-0.34240523 -0.05145532 -0.14035612 0.1512922 -0.08669973 -0.06155401 -0.07161632 0.57566446
0.14943628 0.032779634 0.13340686 -0.39733803 -0.22100833 -0.1405527 -0.13137841 -0.07220144
-0.17666529 0.16830774 -0.16406946 -0.16578484 0.17131394 -0.12970072 -0.021944456 -0.1537404
-0.19750164 -0.10778282 -0.11405556 0.21090764 -0.054154944 -0.1169034 -0.109927624 0.007298623
0.2018388 0.20510352 0.145981 0.26966855 -0.025175706 0.022518517 -0.34353614 -0.1224881
-0.08795744 -0.0015789648 -0.052894004 0.0018536212 0.20111567 -0.09957071 -0.17820664 0.03415259
0.16356117 -0.51180345 0.061633486 0.20494121 0.19754978 0.29071105 0.10939707 0.0010635168
0.07119322 0.13337235 0.0751967 0.13954224 0.11389628 -0.117298156 0.116942964 0.006034366
00000000: 18e5 00bd d756 783c 204f 813d 6539 97bd
00000010: d71e 243d c600 f5bc 8df6 54be 5074 2fbc
00000020: adfa 523d 5642 b63d f306 dfbc aa42 a83d
00000030: aa91 68bc 3ec4 f03d b869 49be f4a6 05be
00000040: 3451 773d b086 d4bd 30cc 283e c83c d1bb
00000050: a8be e93c 2dee 23be 611a f6bd 6c84 7a3d
00000060: 6f83 0a3d 3986 fcbd a146 7c3d 18bf 5b3e
00000070: 2745 db3d 8a6f 3f3d 3c43 2d3e 290b d8bd
00000080: f39e 563e f627 07be 48ae 883e c2c0 de3d
00000090: 36c0 013e 1ca0 333e c923 f43e a571 21be
000000a0: 2e29 b23c 049a a4bd 1907 19be c83e 463d
000000b0: cb10 e5bd 98f8 36be ee53 3d3d 3aee 46be
000000c0: da13 ef3d 2469 7dbe 9204 d83d e72c 1a3e
000000d0: 9e13 1dbe 3ac9 acbd b512 c83e 88d6 10be
000000e0: 4c61 32be b9b1 273e a794 033e 7dd4 a13d
000000f0: 629c 27be 1514 d3bd 1d51 923e fe29 373d
00000100: f4f7 f4bd 120d 89bd 9f7d 9e3c 0b8b ef3c
00000110: ffdd 073e 9af5 f83c d3a3 9ebd c73f 963d
00000120: 9aff 88be d082 0ebc 63e3 1b3e dfaf 95be
00000130: 6ec7 c73c d0ca 413c 0055 c93d 1553 043d
00000140: 2850 373d e8fb 5c3d 3171 0b3e bc4a 403d
00000150: e186 123e b9e8 8ebe fdfc 7b3e 85f0 2d3e
00000160: 951a 063d eeb8 3a3e 4357 b83e a70f be3c
00000170: 7060 b83d 0288 28be ddee a93e f635 543d
00000180: b713 213e 6be0 123e 1493 643d e3bf c73e
00000190: 5252 203e aed4 dcbe 3e4c 443b 11ba 913d
000001a0: 8702 38be 6809 063c 656e 273e 2e8e cc3d
000001b0: 39b8 8bbd 7f8f 283e a4cd e3bd fb3c 8e3c
000001c0: bf91 b73c 99af 2a3e d8e2 9e3e b461 98be
000001d0: e803 853e 5e91 2abe 00e5 da3a 2e4a d33d
000001e0: 69de 363e d95f e9bd 4a0f 6a3e 3cbd 4c3d
000001f0: 616b 57bd d1bc 0b3e 3347 9a3d fd6b d6bd
00000200: 79d4 963d 4295 463e 8af3 c53e 73db dbbd
00000210: 3628 15be bf05 e13d e11d 323e e268 4e3e
00000220: 9d4d d1bd e406 14be 6163 c5bb a148 9a3e
00000230: 92d6 383e 4e30 1dbf cff4 77be 1c26 403d
00000240: a3e7 2cbe b4f0 8abd c4db 0abe 6d08 683b
00000250: 3ea5 db3d e43c f7bd ac09 f3bd fac5 33be
00000260: 963d 32be adb7 8c3d 446e 8fbd 6cae 13be
00000270: cbd4 16bd 5ff5 103e b2f2 143d 5641 53be
00000280: 23f3 703c b35b bebd 846b 7b3e 4867 3d3d
00000290: 259e 5f3e 3d48 e63d 73b3 6a3e 3bdf ffbd
000002a0: e083 153e 904a 433d d8a9 26be b1ca cfbd
000002b0: 9706 aabd 7497 dd3d 6a3e 943d 919b 3fbe
000002c0: 664e f93d cf5f 26be 6cb9 0abd c677 a33d
000002d0: 8849 033d 068c a6bd 9b6f d23c a2bb 533e
000002e0: 0a81 15be b070 713d 7dfe 0a3e 0015 9f3c
000002f0: ec25 4a3c 3d67 0f3e 6a50 413b 0227 17bf
00000300: bd4f afbe d0c2 52bd 84b9 0fbe 58ec 1a3e
00000310: a18f b1bd 0f20 7cbd 94ab 92bd bf5e 133f
00000320: d305 193e f043 063d cf9b 083e e46f cbbe
00000330: 0250 62be 0ced 0fbe 1088 06be 59de 93bd
00000340: bfe7 34be dd58 2c3e d301 28be 80c3 29be
00000350: ec6c 2f3e 44d0 04be dcc4 b3bc 206e 1dbe
00000360: df3d 4abe 3dbd dcbd f695 e9bd 2cf8 573e
00000370: 93d1 5dbd 0d6b efbd bc21 e1bd 4a29 ef3b
00000380: d5ae 4e3e a806 523e 0b7c 153e ff11 8a3e
00000390: 483d cebc c178 b83c f8e3 afbe 0adb fabd
000003a0: 0823 b4bd 44f5 ceba 62a7 58bd 35f5 f23a
000003b0: 44f1 4d3e baeb cbbd cd7b 36be 96e3 0b3d
000003c0: 947c 273e 8d05 03bf 6573 7c3d 1cdc 513e
000003d0: 7d4a 4a3e 14d8 943e 920b e03d b465 8b3a
000003e0: c0cd 913d c392 083e ba00 9a3d 29e4 0e3e
000003f0: 7442 e93d 043a f0bd cb7f ef3d eebb c53b

sequential_2/dense_8/MatMul f4 [21, 64]
-0.19839898 0.23570547 -0.3677545 -0.1591 -0.34262848 0.050121725 0.2421149 0.19817416
-0.10765554 0.28231406 -0.040694937 -0.21283035 0.057322204 0.056546915 0.06734053 -0.26287624
0.24168512 -0.2212879 0.50213605 -0.6741755 -0.28998968 0.14067957 0.3803035 0.24678075
0.39050722 -0.08199166 -0.24816442 -0.22664085 -0.19729477 -0.18920355 0.073729694 0.45560125
-0.10185224 -0.15897684 0.019413171 -0.7183915 -0.6065529 -0.28827456 -0.0109243365 -0.05091597
-0.1821395 0.29921743 -0.67397213 0.024619263 -0.45707056 0.32497925 -0.18782467 -0.010648198
-0.040404677 -0.04864033 0.0635136 -0.035179228 0.19371325 0.15855294 -0.16530292 -0.09970744
0.23778424 -0.17339993 -0.30552873 0.29805 0.07972017 0.03398955 0.37131885 -0.116987824
0.34270605 -0.032552876 0.108891964 0.35299054 0.15755525 0.1636701 0.17257068 -0.40138423
-0.1800203 -0.2178788 -0.012756363 0.06739802 0.19517218 -0.45559478 0.12118155 0.10371272
-0.154935 -0.41615117 -0.25181246 -0.077174425 0.25403038 0.041237846 0.09908211 -0.028024513
0.12267527 -0.0827775 -0.24809001 -0.07895003 -0.12479833 -0.5871313 -0.10531674 -0.065142594
-0.7310773 -0.16568774 -0.20195667 -0.4477142 0.009390473 -0.23416694 0.16364935 -0.8012055
-0.17858414 -0.29198328 0.03264747 -0.11858143 0.24726748 -0.11357429 0.079988144 0.32517046
0.03774011 -0.20112535 -0.5142895 0.09357795 -0.4138212 0.0777427 0.18657494 0.089101516
-0.3770502 0.1109308 -0.18989503 0.2384177 0.24931996 0.19057487 0.049178332 -0.5686169
-0.40822995 -0.15894322 0.06553173 0.06319051 0.17306219 0.2142942 -0.6072399 0.22420023
0.009764041 -0.55123705 -0.26856825 -0.071112275 -0.058428746 0.39346337 -0.09952071 0.082553826
-0.26411903 0.3570166 -0.028718006 -0.025590511 -0.5980318 0.010027702 -0.34351885 0.15208562
-0.35303938 0.02129389 0.15228015 -0.025493748 0.42311823 0.34804556 0.007760972 -0.5737044
-0.063959 -0.17821239 -0.22727782 0.45300704 -0.1727917 -0.21278119 0.06636734 -0.20738026
-0.17361455 0.45019025 0.14880398 0.049344838 -0.26287392 -0.7110044 -0.070621505 0.2075922
-0.13705069 0.3811694 -0.06968152 0.044003636 0.06434687 -0.1873418 -0.23139356 -0.354331
0.036687396 -0.04144483 -0.67632055 -0.48173133 0.040611535 0.3840365 -0.023914423 0.23260944
-0.052135438 -0.22020438 0.18178411 0.051269148 0.022406178 0.07643759 0.27926022 0.22011128
0.27032626 -0.6152989 0.19904467 -0.11474077 -0.2728563 0.21730593 -0.11164989 0.0825437
-0.16751799 0.004429725 -0.28766403 0.36554152 -0.13788873 0.17510274 -0.3147279 0.18153578
-0.18053873 -0.21738553 -0.2685652 -0.12044568 0.30509302 0.09752621 0.09183216 -0.24477264
-0.28403112 0.19892846 0.09774022 -0.10070055 0.105403185 0.22601707 -0.2031671 -0.32088298
0.19663547 -0.18885072 0.207463 0.19592206 0.13628633 -0.04054764 -0.0009913909 -0.10837871
0.19059083 0.22606221 0.14214492 -0.18578202 0.21662796 -0.15842792 0.07104015 -0.2770113
-0.29535234 -0.12555876 0.09603781 -0.47733033 0.096814215 -0.22666082 -0.3959626 -0.09988676
00000000: 1a29 4bbe c65c 713e 514a bcbe 1ceb 22be
00000010: 006d afbe 704c 4d3d f8ec 773e 2bee 4a3e
00000020: 827a dcbd 788b 903e bcaf 26bd 33f0 59be
00000030: b0ca 6a3d bd9d 673d d5e9 893d b797 86be
00000040: 4e7c 773e 4c99 62be fd8b 003f c496 2cbf
00000050: 8779 94be 4e0e 103e 24b7 c23e 18b4 7c3e
00000060: 90f0 c73e 3eeb a7bd d01e 7ebe 8a14 68be
00000070: a407 4abe 93be 41be 98ff 963d 9144 e93e
00000080: e897 d0bd d3ca 22be 5f08 9f3c 81e8 37bf
00000090: 0d47 1bbf b998 93be fdfb 32bc 448d 50bd
000000a0: c782 3abe 0733 993e 7089 2cbf 56ae c93c
000000b0: 2705 eabe ae63 a63e 1c55 40be c875 2ebc
000000c0: 607f 25bd 153b 47bd 6b13 823d 1818 10bd
000000d0: c45c 463e b45b 223e 2b45 29be 6a33 ccbd
000000e0: b67d 733e c08f 31be 436e 9cbe 029a 983e
000000f0: 5444 a33d a038 0b3d 811d be3e 5097 efbd
00000100: 2b77 af3e 2a56 05bd c002 df3d 2dbb b43e
00000110: 2a56 213e 2299 273e 5eb6 303e 3c82 cdbe
00000120: 3e57 38be 9f1b 5fbe 1000 51bc f907 8a3d
00000130: 37db 473e b843 e9be 082e f83d 5667 d43d
00000140: 48a7 1ebe c411 d5be 90ed 80be a00d 9ebd
00000150: 4510 823e 04e9 283d 90eb ca3d aa93 e5bc
00000160: 2c3d fb3d 4087 a9bd 4f0b 7ebe 8eb0 a1bd
00000170: 4496 ffbd 3d4e 16bf 4eb0 d7bd 7b69 85bd
00000180: e227 3bbf 0caa 29be bbcd 4ebe cc3a e5be
00000190: 80da 193c 75c9 6fbe b293 273e ce1b 4dbf
000001a0: c3de 36be d57e 95be 5ab9 053d d2da f2bd
000001b0: b033 7d3e a399 e8bd d3d0 a33d be7c a63e
000001c0: 6095 1a3d cef3 4dbe 7aa8 03bf cca5 bf3d
000001d0: 5fe0 d3be 9137 9f3d 800d 3f3e db7a b63d
000001e0: b90c c1be b02f e33d d873 42be c523 743e
000001f0: bb4d 7f3e 0f26 433e 386f 493d e190 11bf
00000200: 8403 d1be 03c2 22be 8035 863d 076a 813d
00000210: 3737 313e f06f 5b3e 1374 1bbf bf94 653e
00000220: 5bf9 1f3c df1d 0dbf c781 89be 50a3 91bd
00000230: fb52 6fbd 0874 c93e 84d1 cbbd fb11 a93d
00000240: 9c3a 87be e1ca b63e 0642 ebbc 31a3 d1bc
00000250: 9d18 19bf 3b4b 243c b4e1 afbe 55bc 1b3e
00000260: 94c1 b4be 8670 ae3c 54ef 1b3e 44d8 d0bc
00000270: f4a2 d83e 0733 b23e c04f fe3b 4bde 12bf
00000280: f0fc 82bd 4f7d 36be 84bb 68be 8af0 e73e
00000290: 4ff0 30be 50e3 59be 9aeb 873d 7e5b 54be
000002a0: 03c8 31be 567f e63e 1260 183e d01d 4a3d
000002b0: 6997 86be 6204 36bf 02a2 90bd 0d93 543e
000002c0: 0457 0cbe a328 c33e 2fb5 8ebd 283d 343d
000002d0: 4bc8 833d 87d6 3fbe 6ff2 6cbe df6a b5be
000002e0: 8645 163d 0ec2 29bd 5823 2dbf 7da5 f6be
000002f0: 4858 263d 6fa0 c43e 2ee8 c3bc 2b31 6e3e
00000300: f88b 55bd 427d 61be 9d25 3a3e 99ff 513d
00000310: 298d b73c 508b 9c3d 32fb 8e3e da64 613e
00000320: 3468 8a3e 3b84 1dbf 5ed2 4b3e 35fd eabd
00000330: d2b3 8bbe 7285 5e3e b3a8 e4bd ac0c a93d
00000340: d689 2bbe 3a27 913b b348 93be 4228 bb3e
00000350: b432 0dbe 224e 333e 0424 a1be 84e4 393e
00000360: 25df 38be 509a 5ebe 6181 89be 3aac f6bd
00000370: 2735 9c3e d2bb c73d 8012 bc3d aea5 7abe
00000380: 876c 91be e7b3 4b3e 062c c83d 173c cebd
00000390: a0dd d73d 0571 673e 090b 50be c64a a4be
000003a0: cf5a 493e 1562 41be 2e71 543e cb9f 483e
000003b0: a58e 0b3e 4815 26bd 8ff1 81ba a8f5 ddbd
000003c0: 3e2a 433e da7c 673e 708e 113e a43d 3ebe
000003d0: b8d3 5d3e ee3a 22be 807d 913d 6dd4 8dbe
000003e0: 6c38 97be 7a92 00be 79af c43d a464 f4be
000003f0: 8846 c63d c619 68be 9cbb cabe 6e91 ccbd
