app/src/main/assets/keypoints_to_pose_classifier_v2.tflite (tflite, 68436 bytes, 6 tensors)

sequential/dense/BiasAdd/ReadVariableOp f4 [128]
00000000: d963 803d 5710 04bd 0000 0000 0070 533d
00000010: db7e 47bd 6a0e 863d a4c8 fb39 0000 0000
00000020: 0ed6 893d af05 bc3d c08e 873c 6833 03bb
00000030: 74dc 8c3c 9cb3 9a3d 0000 0000 825d b5bb
00000040: 49a0 3c3d 0000 0000 9281 bab9 0000 0000
00000050: 14f5 803d 0c87 1cbc 0000 0000 7467 2c3d
00000060: 86bf 703c 0000 0000 9329 f93b 0000 0000
00000070: 0000 0000 30e2 6c3d 433a d0bb bdc9 dd3b
00000080: cdc0 30bc ee07 f53b e747 d53c 96f6 a4bc
00000090: 0000 0000 1ac6 c03c fb4b 603d 018b f4bb
000000a0: 72e8 7ebc 7014 b13d eeb5 c83c 8711 09bd
000000b0: d22f 50bc 564c 053d 0000 0000 781d 4a3d
000000c0: ed7b 3bbc ceeb 353d 3b72 733d 38fe a7bb
000000d0: 93aa 303c af28 b53d 0000 0000 f164 5ebd
000000e0: c1b4 0c3d c405 173d 0000 0000 7fb5 3f3d
000000f0: 2617 f03c f7d5 28bc 0000 0000 f326 623d
00000100: 831a 3f3c 0165 093d 874c d93d 628a 06bc
00000110: 3674 2fbc dee1 13bc 7060 50bc 0ae5 cbbb
00000120: 2212 1fbc e81b 463b 80bc 303d 0000 0000
00000130: 8e83 083e e06e a43b 35ad 6d3d 0000 0000
00000140: 0000 0000 80fd 91ba 0000 0000 fa79 543d
00000150: 6e48 d0bc 9c86 a8bb 8934 883d 3aff 62bc
00000160: e33b d5bb e53f 463d 8b4c 6ebc 1cd0 44bc
00000170: 7e41 0e3d 63c9 373c a917 50bc 2b94 d6bc
00000180: afeb b73c c85a a13d 5696 de3b 9478 993c
00000190: c2e5 67bc e3f7 283d d865 1c3b 4b0e efbb
000001a0: 23ae 9e3d 0000 0000 ba53 a7bc 6bd2 e0bb
000001b0: c920 803d 2ac7 49bd 6fab 89bc f7c7 1a3d
000001c0: a56a 833d 9f49 14bb 9aaf 893c 2bf5 013e
000001d0: 621e 25bc 8650 d4bb e13d 053c 92e3 b5bb
000001e0: 338b 743d 22a3 97bc 2ba2 bcbb b788 8c3d
000001f0: 8226 9dbc 1335 613b 55d7 2a3d 0000 0000
0.062690444 -0.032242145 0.0 0.051620483 -0.048704963 0.06545718 0.0004802394 0.0
0.06730281 0.091807716 0.01654756 -0.0020019654 0.017194964 0.07553789 0.0 -0.0055348286
0.046051297 0.0 -0.00035573222 0.0 0.06296745 -0.009553682 0.0 0.042090848
0.0146941 0.0 0.007603833 0.0 0.0 0.057832897 -0.0063546016 0.006768434
-0.010788155 0.007477752 0.026035262 -0.020137113 0.0 0.023531962 0.05475996 -0.0074628596
-0.015558349 0.08646476 0.024500813 -0.03346398 -0.012706714 0.032543503 0.0 0.04934451
-0.01144312 0.044414334 0.05943511 -0.005126741 0.010782856 0.088456504 0.0 -0.054295484
0.034352068 0.036870733 0.0 0.046803948 0.029307913 -0.010304919 0.0 0.055212926
0.011664036 0.03354359 0.106102996 -0.008211704 -0.010708859 -0.009026019 -0.012718305 -0.006222372
-0.009708913 0.0030229036 0.043148518 0.0 0.13331434 0.0050181 0.05802651 0.0
0.0 -0.0011138171 0.0 0.05187414 -0.025425162 -0.005143 0.06650645 -0.013854796
-0.006507383 0.04840078 -0.014544616 -0.012012508 0.034730427 0.011217448 -0.0127009535 -0.026193699
0.02245125 0.07878643 0.006792824 0.018734254 -0.0141539 0.04125203 0.0023864415 -0.007295405
0.07748058 0.0 -0.020425666 -0.0068610213 0.06256253 -0.049262203 -0.016805379 0.037788358
0.06416825 -0.002262689 0.016807366 0.1269118 -0.010078045 -0.0064793257 0.008132429 -0.00555081
0.059703063 -0.018510405 -0.0057566366 0.06862014 -0.019183401 0.003436391 0.041709263 0.0

sequential/dense_2/BiasAdd/ReadVariableOp f4 [25]
00000000: 6b20 553c a91a 48bd 549d bf3c aca9 3dbd
00000010: 1928 eb3c 87e0 f0bc 7178 e9bc 898d 313d
00000020: 42b9 143d 742f 5bbd 80c4 90ba c1d0 89bc
00000030: 98f7 65bd 2064 55bd ce11 723d 1877 56bb
00000040: 23c4 7a3c 252e 15bc 6dda 1d3d 8166 1c3d
00000050: 4603 ac3c aa6d 06bd 12c9 b43c 5ba1 bf3d
00000060: 42c0 95bd
0.013008217 -0.04885355 0.02339045 -0.04630439 0.028705643 -0.029403938 -0.028499814 0.04334787
0.036309488 -0.05351205 -0.001104489 -0.016823174 -0.056144327 -0.05209744 0.05909901 -0.0032724794
0.015305552 -0.00910524 0.038538385 0.038183693 0.020997655 -0.032819428 0.022068534 0.09356948
-0.07312061

sequential/dense_1/BiasAdd/ReadVariableOp f4 [64]
00000000: c993 1ebc 59c7 4cbc 0000 0000 5f2e 3fbd
00000010: a724 b33c 756f b03d a422 6db9 0000 0000
00000020: cbb4 113c 8719 563d 2685 783c 4136 6ebd
00000030: 8504 7c3d da4d c73d 433c 5f3d 0000 0000
00000040: d012 153d 1766 3e3d 1a53 743d 2ae1 933d
00000050: be3a 06bc 50e5 13bc cdfc 2dbc eb84 a13c
00000060: 4a92 a23c 0000 0000 0000 0000 9c8b 4fbb
00000070: 4061 113c 9e1b 8a39 5a39 543d f7e5 c5bb
00000080: 0000 0000 a632 debb 0000 0000 7b2c 983d
00000090: b81f 18bc b504 35bd 8646 8bbc c8d5 34bc
000000a0: b0a8 703b 2b25 cf3c 8d5b af3b 436f 2a3d
000000b0: 0000 0000 1b36 a03a 4425 573d 832d aa3c
000000c0: 8c01 b83b 5219 803d 810a 1abc 7bb4 01bc
000000d0: 099c be3c 311e 04bc 2ffd 5abc 0cbf 47bc
000000e0: a95c f83c 7c8c 9abb 43b8 9dbc 0000 0000
000000f0: 74a1 58bd 952b cd3c a21c edbb dc27 673d
-0.009678789 -0.0124987 0.0 -0.046675082 0.021868063 0.08615009 -0.00022614986 0.0
0.008893202 0.05227044 0.015168464 -0.05815721 0.061527748 0.09731646 0.05450083 0.0
0.036394894 0.04648408 0.059649564 0.07220681 -0.008192716 -0.00902684 -0.010619354 0.0197167
0.019845147 0.0 0.0 -0.0031668907 0.008873284 0.00026341988 0.051812507 -0.006039377
0.0 -0.00678094 0.0 0.07430359 -0.009284906 -0.044193942 -0.017001402 -0.011037298
0.003672164 0.025286278 0.00535149 0.041610014 0.0 0.0012223156 0.052525774 0.020773655
0.005615419 0.062548295 -0.009401918 -0.007916565 0.023267763 -0.008063839 -0.013366028 -0.012191545
0.030317621 -0.004716454 -0.019252902 0.0 -0.05288835 0.025045196 -0.0072360793 0.056434497

sequential/dense/MatMul f4 [128, 51]
00000000: d6e8 c53e 0a5f 3d3e 78a7 763d ba37 9d3e
00000010: 5e2c 9fbd 6501 b93d 200f 2a3e b12d d23d
00000020: f53e 9cbd 3f02 533d ef25 023e c400 653e
00000030: 8ca6 a03d df46 dcbd 9c1f 7cb9 8467 6fbd
00000040: 9e6b 5abd d90f d63d 521f 0f3e 4093 593e
00000050: d1f5 1d3e 5a32 073e 862f 22be 4e6d 973d
00000060: 1476 da3d 7ac0 0f3c 9754 043e a697 af3e
00000070: d46e f03c fe74 29bd 0ec7 4b3e 2b25 0b3d
00000080: bdf1 a43d 7e09 29bf 0ba8 943d fe05 1cbe
00000090: ed5c 0ebf af8b 273e 3c83 e53d 7186 2dbe
000000a0: 6ccc 7bbd f9aa e43c 6138 95be 8881 843e
000000b0: 4f22 5ebd 05d8 a3bc ee71 093e 9670 363d
000000c0: 5525 8d3d 38c7 af3c e8a2 05be 248e 8dbe
000000d0: 1f42 543e 5c1b 303e 1359 f7bd db8d 89bd
000000e0: e11b 023e 6fda 27be 5f5f e43d 4704 383e
000000f0: d89c 3dbd dbd2 283e 14d6 133e ebb1 33be
00000100: 0458 273e 0d3e d03d 8135 633e d269 553d
00000110: 2521 c4bd c6da 223e f2db c0bd 2888 263d
00000120: 01b2 d93d f56a 65bd ce97 203e cb82 d23d
00000130: cfac 993d 58cb 36bd 17b6 bebe 0b66 3a3d
00000140: 7e37 21bd cf00 aabe 826b a6bc 5ff8 ecbd
00000150: 4153 773e c685 143e 92f7 8fbd 9147 9c3e
00000160: ed60 223e e535 453d dae7 cdbd 378f a03c
00000170: b0df c03d 450c 233c c4ae 8abe 2576 4c3e
00000180: aab9 7a3e 2d9a 17bd e2fe 633d 5a1e 633e
00000190: 8dee 86be 2e3c 01be 182b 8ebd a485 6dbd
000001a0: a25e c23d f6e5 f93d ad4e 083e 0a99 86bd
000001b0: 9b4f 2bbe ea8d 03be 466f b13d e2b2 f8bd
000001c0: ab2d 123e 79cb 043e df7f 0bbe ff6a 053e
000001d0: 73d9 27be f306 2d3e 08a2 20be 57a1 2bbe
000001e0: b6b8 17be fefd 9ebd bc03 1e3d d8ae 823d
000001f0: 1952 293e 167f f63d 1020 6dbc c793 36be
00000200: 6037 683c b87e bdbc baf5 a03d 02a2 a1bd
00000210: be60 12be c7e2 373e 25f0 f9bd 3538 003e
00000220: 00a9 243a 32c4 7cbd a083 6b3d 44f7 843d
00000230: 6ad0 e23d 0038 5fb9 4881 37be acc6 2b3d
00000240: cc22 653d 4056 febc 42da 81bd 7027 593c
00000250: eef3 29be 7ed8 22be 66a9 0abe f05d ccbc
00000260: 1d61 ffbd 6daa d8bd 264c ab3d 4285 293e
00000270: 1f58 1ebe c512 09be a67c 583e 4b52 76bd
00000280: 43c8 cf3d 70db 25bd 41a4 7fbe c2b9 f23c
00000290: b858 213e 176e 7fbe 43bf 473e 1c96 8f3d
000002a0: 0aef b93d 118c 26bd 7251 413e 0b6a 41bd
000002b0: 5395 d43d 17e1 5c3e 04d4 8bbd a9d7 09be
000002c0: 5935 8c3d 84fa 873d a213 0e3e b208 aabd
000002d0: f4bc 85be 9bff 44be 2a46 3a3e 3d80 20be
000002e0: c8cd 443d 296a 203e ffb9 6bbe 3a23 b73d
000002f0: 79b5 c5bd fbaf 783d c7b9 bc3d 1c8b 023e
00000300: fdfd 23be 22b7 c03d 1067 83bd 563e cf3d
00000310: 746e 7b3d f42f 22be dbac b8bd a6ad 073e
00000320: 4a60 833d e369 83bc 69ca 48be 85eb 313e
00000330: f0ca c13d b60a 13bd 18ec 453d 620a 883e
00000340: f33e 003e b1d7 4b3e 8cb9 8b3d 1c7c 1fbc
00000350: 8b8b 343e e8f6 aa3e 463c 443d c51d f93d
00000360: cad4 663e 788c 173d 4223 12be cc69 8f3e
00000370: 3910 33bb a3ab 40be da42 183d b2ee eb3d
00000380: 628f 8ebd 09b6 ca3e 9281 0ebe 02b7 eebd
00000390: db2f 9f3e 32eb afbd 9304 bf3d 6581 983e
000003a0: 53ae 943b 4fe2 243e adc9 cb3e f7ad 89bd
000003b0: 3482 c93d 5cee e4be 7f79 ae3d 2a15 843d
000003c0: 55f7 c5be 5db9 f73c 76c7 423d 1ce6 2abd
000003d0: 69b4 1b3e 4889 7dbd 5d22 1ebe c560 c5bd
000003e0: 90de d1bd 09c0 0cbe ab08 8cbc 1354 073d
000003f0: a173 a23d ee83 8abd 59eb 21be e84a ddbd
0.38654202 0.18493286 0.060218304 0.30706578 -0.07772134 0.09033469 0.16607332 0.10262621
-0.076291956 0.051515814 0.12709783 0.22363573 0.07844266 -0.10755705 -0.00024044368 -0.05844833
-0.053325288 0.104522415 0.13976792 0.21247578 0.15425803 0.13202801 -0.15838441 0.07393895
0.10667053 0.008773917 0.12922893 0.34295386 0.029349722 -0.041371338 0.19900152 0.033970993
0.080539204 -0.6603011 0.07258614 -0.15236661 -0.55610543 0.16361879 0.112066716 -0.16945817
-0.06147425 0.027913557 -0.29144576 0.25880075 -0.054231938 -0.020000467 0.13422367 0.044540964
0.06891886 0.0214573 -0.13050425 -0.27647507 0.20728348 0.17197937 -0.120775364 -0.0671651
0.12705947 -0.1639192 0.11151003 0.17970382 -0.046292156 0.16486685 0.14437133 -0.17548339
0.16342169 0.10168085 0.22188379 0.05210287 -0.09576634 0.15903768 -0.09416951 0.040657192
0.10629655 -0.056010205 0.15682909 0.10278853 0.07503664 -0.044627517 -0.372483 0.045507472
-0.039359562 -0.33203742 -0.020314936 -0.115708105 0.24152853 0.14504156 -0.07029642 0.3052335
0.15857287 0.0481471 -0.10053988 0.01959954 0.09417665 0.009951656 -0.2708646 0.19966944
0.24484888 -0.037012268 0.055662997 0.22179547 -0.26353875 -0.12620613 -0.06941813 -0.057988778
0.09490706 0.12202065 0.13311262 -0.06572159 -0.16729586 -0.12847105 0.08663802 -0.12143494
0.14275233 0.12968244 -0.13622998 0.13029097 -0.16391544 0.16897182 -0.1568681 -0.16760765
-0.14816555 -0.07763289 0.03857778 0.06381005 0.16535224 0.120359585 -0.014472976 -0.1782981
0.014173359 -0.023131713 0.078593686 -0.07892229 -0.14294717 0.17957602 -0.12204007 0.12521441
0.00062812865 -0.061710544 0.057498574 0.06492475 0.11074908 -0.00021287799 -0.1792041 0.041937515
0.055941388 -0.031046987 -0.063404575 0.013254032 -0.16596958 -0.15902898 -0.13541183 -0.024947137
-0.12469695 -0.10579381 0.083641335 0.1655474 -0.15463303 -0.13386066 0.211413 -0.060137074
0.10145619 -0.040492475 -0.24965002 0.029629592 0.157565 -0.2494434 0.19506554 0.07011053
0.09078796 -0.04066092 0.18878725 -0.04722027 0.10380044 0.2157024 -0.06827548 -0.13461174
0.06846113 0.06639579 0.13874677 -0.0830244 -0.26120722 -0.19238131 0.18190828 -0.15673919
0.04804781 0.15665497 -0.2302017 0.08942266 -0.09653754 0.060714703 0.09215122 0.12748379
-0.16014858 0.0940993 -0.06416142 0.101193115 0.061384633 -0.15838605 -0.090173446 0.13249835
0.0641485 -0.016041702 -0.19608463 0.17375 0.094625354 -0.035898887 0.04832086 0.2657042
0.12524013 0.19906498 0.068225 -0.00973418 0.17631356 0.333915 0.047909044 0.12163881
0.2254211 0.036999196 -0.14271262 0.28010404 -0.0027322902 -0.18815474 0.03717313 0.11520137
-0.06960942 0.39592007 -0.13916615 -0.11656 0.31091198 -0.08589782 0.09327044 0.2978622
0.0045373826 0.16101955 0.39802304 -0.06722634 0.098392874 -0.44713104 0.08519267 0.06449349
-0.38665262 0.030239755 0.047553502 -0.041723356 0.1520554 -0.0618985 -0.15442796 -0.09637598
-0.102475286 -0.1374513 -0.017093977 0.033039164 0.07932211 -0.06763445 -0.15812434 -0.10805303

sequential/dense_1/MatMul f4 [64, 128]
00000000: 0124 dfbd 791a 37be cfa6 01be e544 a5bd
00000010: 9d69 0d3e f343 f7bc 9d51 29be 06e9 e73d
00000020: 0678 30bc 9435 333d 2844 903d 8e0a a63d
00000030: 34a6 5cbd 188e c8bd c07d 03be e1da 303b
00000040: 73af 9b3d 31dd 9cbd a6e7 04bd 68df 853d
00000050: f912 cabd c762 983d 8047 31bc a33d 5a3d
00000060: e736 eabd 2743 1c3e e9eb 063e fd33 253e
00000070: 3f0a 88bd c1c7 183d ceea 93bb b8f2 24bb
00000080: a04c e9bd 46a1 73bb 4b94 b23c 2590 ff3d
00000090: d247 933d c165 a7bd b3dc 653d 6952 a63d
000000a0: 0790 103e 0bd0 cdbc e4a5 8fbd 3553 03be
000000b0: 16b5 8d3a 4236 fdbd 0032 6d3b 0a1d 2abe
000000c0: 56df 00be 1dd1 82bd c13b 8ebd da23 7abd
000000d0: 1fbd 0fbe c57a b23d 1c4e 46bd ffe4 02be
000000e0: 32f5 003e 9678 12be 665c cc3d 46c1 213c
000000f0: 45ec 8c3d 9de5 2abe bea4 eebd 6bb6 a0bd
00000100: 051f b53d 1624 9ebd 30df d6bd c02a 3bbd
00000110: cd0d 3fbe fedd 30be fc34 3fbd f140 bcbd
00000120: 613d c1bc 840b adbc 3e38 cebd 2890 833d
00000130: 883e 07be 0546 95bd 361c 8c3d 004e d0bc
00000140: fcdc 313d b8d9 7e3d 282d a83c fae7 e3bd
00000150: bf93 e1bc be54 56bd 853d 233e 3e92 cfbc
00000160: 1bd8 163d 47df e2bd f8ca 8bbd f037 3fbd
00000170: 48a7 c2bd 8ce7 3bbe 7821 a63c 2c13 54bd
00000180: 1b75 0e3e 15ed 32be 0925 56bd ddde 503d
00000190: 86ae c03c 5c8d 3dbe 756c 183e 30cb 2d3c
000001a0: 0ba3 38bc 2a05 803d 68c2 15be 649c 243e
000001b0: 0a0f d7bc 7641 b8bd 9546 72bd 78f6 51bd
000001c0: 4ddd 9d3d 0701 39bd 43c4 fa3d ac47 eabc
000001d0: 2cb9 f5bd ed3b f93d e2b7 99bc 4336 1dbe
000001e0: f7b7 fa3c ad91 fabd 5263 9fbd af0a 133e
000001f0: eee7 c3bd 35a3 c1bc 4e04 073e 86fd b0bd
00000200: d0fa 25be fc66 0a3e a36d 203e c4e0 803d
00000210: 6378 c93d ce3a 06be 58ca f13d 7e8a d9bd
00000220: 057e 0d3e fc19 833d 8966 1cbe 1298 993d
00000230: b9e8 06be f492 993c 477a 06be 3bad a6bd
00000240: 6809 2dbd e241 26be d581 a03d d95d 283e
00000250: 132f 573d 5474 71ba 3fcd 1abe 6abf 64bd
00000260: e882 1ebe d61d 7fbd 242d 953d a51b d2bd
00000270: 9ac9 2dbe ad16 1f3d c89a aabd 5a5b 31be
00000280: 4e28 fc3d 7350 e93d a3a3 9f3d 95dc 04be
00000290: 1df5 17be 7826 053e 6d01 353d a773 23bd
000002a0: cd75 fbbd d99e 2abd 7bd0 85bc 5aa4 14be
000002b0: c8d1 14be f4e3 04be 9409 b3bd 8bd9 ebbc
000002c0: 0016 ffbb bb04 13be 362d 08bd 10b9 cd3c
000002d0: 064c cf3c 2314 883d 6ccc 1f3d 4d62 0a3e
000002e0: f304 073e 72f6 14be 1439 63bd 1bb7 323e
000002f0: e96b 4b3c 36f6 ee3d 7512 f3bd 6461 cf3d
00000300: 2aa5 9cbd 1c10 37be c5d3 0a3e 8d93 c33d
00000310: 73f5 043e 8ff7 033e 7d32 a13d 712f 063e
00000320: e59c b3bc 8c00 6e3c ed88 01be d333 a3bd
00000330: fb85 a7bd f3cd 16be 6294 fdbd 4a74 f53d
00000340: 8a0e f8bd 4589 6f3d 32ff b73d ee84 a8bd
00000350: 62ec 323c 08c5 edbd deeb a8bd 59a5 c2bd
00000360: bbf3 ce3d b7b0 f8bd 4dae ff3d 1f33 193e
00000370: 2a57 0cbe d404 a0bd db31 bfbd 718f 223e
00000380: cd64 d1bb 8b03 4bbd 821e 88bb 7b44 59bd
00000390: 34cd cb3d e90d 183e 9442 1bbe 2070 5b3c
000003a0: 3d1d 0dbe 5b09 05be 07a7 dabc 75d9 2bbe
000003b0: 73e0 a13c 5a90 22bc 1af1 86bd 6972 113e
000003c0: 63b5 d43c e11f 913d 9426 2dbd ab08 a3bd
000003d0: ee09 1abd ae94 0a3e 9d20 dcbb 310e 2b3e
000003e0: 40ae 2b3c 062c 333d 1254 c73d dd8e a13d
000003f0: 95bb cdbd ea6a f6bd 63c5 ccbb 5709 0abe
-0.10895539 -0.17881192 -0.12661289 -0.08069781 0.1380982 -0.030183768 -0.16535039 0.113237426
-0.010770803 0.043752268 0.0704425 0.08107482 -0.05386944 -0.09792727 -0.12840939 0.002698593
0.07601824 -0.076593764 -0.03244748 0.06536752 -0.098669 0.07440715 -0.01082027 0.053281438
-0.11436253 0.15259992 0.1317593 0.16133113 -0.06642579 0.037299875 -0.004514075 -0.0025169086
-0.11391568 -0.0037174984 0.021799227 0.12478665 0.07191433 -0.08173705 0.05611868 0.08121187
0.14117442 -0.025123617 -0.07014063 -0.1282471 0.0010811414 -0.123638645 0.0036193132 -0.1661264
-0.12585196 -0.063875414 -0.06944991 -0.061069347 -0.14036988 0.08714823 -0.048414335 -0.12782668
0.12593535 -0.14303812 0.09978561 0.00987274 0.06881002 -0.16689153 -0.11652516 -0.078472935
0.08843807 -0.077217266 -0.104917884 -0.045695066 -0.18657608 -0.17272183 -0.04668139 -0.09192074
-0.023588838 -0.021123655 -0.10069321 0.0642398 -0.13207448 -0.07288746 0.06841318 -0.025427818
0.043423638 0.06221935 0.020529345 -0.111282304 -0.027536271 -0.05232691 0.15941437 -0.025338288
0.036827188 -0.11077743 -0.068258226 -0.046684206 -0.095045626 -0.18350047 0.020279631 -0.051776096
0.1391186 -0.17473252 -0.052281413 0.05099379 0.02352072 -0.18510956 0.14885123 0.010607526
-0.011269341 0.06250985 -0.14624941 0.16075283 -0.026252288 -0.08996861 -0.059149344 -0.05126044
0.077082254 -0.045166995 0.12244465 -0.028598629 -0.11998209 0.12169633 -0.01876444 -0.1535273
0.0306053 -0.12234817 -0.07782616 0.14359544 -0.095657215 -0.023637393 0.13185236 -0.08642106
-0.16208959 0.13515848 0.15666823 0.06292871 0.09837415 -0.1310837 0.11806172 -0.106221184
0.13817604 0.064014405 -0.15273489 0.07499708 -0.13174714 0.01874683 -0.13132583 -0.0813851
-0.0422453 -0.1623607 0.078372635 0.1644205 0.052535128 -0.00092107547 -0.15117358 -0.05584661
-0.15479624 -0.062284313 0.072840005 -0.10259179 -0.16971436 0.038839985 -0.083303034 -0.17320004
0.12312375 0.113922976 0.07794883 -0.1297477 -0.14839597 0.13002956 0.044190813 -0.039905217
-0.12278328 -0.041655395 -0.016334763 -0.1451582 -0.1453315 -0.12977582 -0.08742061 -0.028790256
-0.007784605 -0.14357273 -0.03324624 0.025112659 0.025304805 0.06644466 0.03901331 0.13514061
0.13185482 -0.14547136 -0.055474356 0.17452662 0.0124158645 0.11668055 -0.11868755 0.10125998
-0.0764869 -0.17877239 0.13557346 0.095496275 0.12984256 0.12887405 0.07870958 0.13104035
-0.0219254 0.014526498 -0.1264989 -0.07968869 -0.081798516 -0.14727001 -0.123818174 0.11985071
-0.12112148 0.05848052 0.089842215 -0.08228479 0.010920616 -0.11609846 -0.08248113 -0.09504194
0.10105082 -0.12143081 0.12484417 0.14960907 -0.13705125 -0.07813421 -0.09335681 0.15875031
-0.00639019 -0.049563926 -0.0041540274 -0.053043824 0.09951249 0.14849056 -0.15162116 0.013393432
-0.13780685 -0.1299185 -0.026690973 -0.16782172 0.019760346 -0.009922111 -0.06588955 0.142038
0.025965398 0.070861585 -0.04227312 -0.07960638 -0.037607126 0.1353328 -0.006717755 0.16704632
0.010478556 0.043743156 0.09732832 0.07888577 -0.10045544 -0.12032111 -0.0062491163 -0.13480125

sequential/dense_2/MatMul f4 [25, 64]
00000000: 44d2 a0bd 4f15 56bd 221e 613e 9f07 aa3d
00000010: 11a2 17be 9c2a a23e 2fdf 02bc c07f ebbd
00000020: da11 9d3e 10d2 59bf 08d9 e2bd de92 69bd
00000030: c803 37be 0a04 d7be 3188 8ebe 8c6a 3abe
00000040: 66a8 bc3d 7615 833e e8ad 213e f2ad 6cbe
00000050: afbd d73c 383d 7bbe d01c dabc 7798 963e
00000060: 0025 e53d 389f 823e 189b 51bd f100 70be
00000070: a983 d7bd a4ee 5dbe 6daa aa3d 731e dc3c
00000080: 009e ba3d e8da 983e 1662 183e 8a54 f0be
00000090: 2d4e 0dbe 45be 2cbe 32f0 633d 526f 0abe
000000a0: 073a d0be 2456 003d 2c65 3f3e 6f8f 00bf
000000b0: 4e78 54be a945 01bf 2af9 87be 3701 453d
000000c0: 6b48 afbe 485d 0d3e dc0a d0bd 28a8 373e
000000d0: 0a06 fc3d 4312 1c3e 6701 91be 6d00 76be
000000e0: 4bf2 d63d a490 e33d 4d8d 91be 0cd8 81be
000000f0: 38c7 b33d 6ba8 663e e2e5 11be 9a3f 32be
00000100: 8c09 203e e718 88be c079 debc c408 043e
00000110: f61e 82be b6e6 213e d091 273d 8cda 41be
00000120: 8373 113d ec75 6e3e 0978 513d bf99 b23e
00000130: 67d6 0abf 8feb 72bd aa33 d8bd 6022 493e
00000140: 64fb 6bbe 4f4c 1c3e 123b e6be df57 853e
00000150: c245 e3bd daee 2bbf 6a8d 633d 5bee 08bf
00000160: 53a4 e53d 5560 84be ea3a 443e 183b 10be
00000170: de56 32be 6177 5a3d ff29 623d 3cd6 7fbe
00000180: 2834 13bd 2144 76be 268c 25be 0dbe be3d
00000190: 8ce7 febd 6a3f 1f3d d047 05bf 2536 56bd
000001a0: 47af c63d 0ef9 9f3c 8b99 37be 8c71 60be
000001b0: 587e 0ebe 10cf 233e 9364 9ebe de12 60be
000001c0: c6d5 ad3d 99f2 e1be 45ed 88bd 0edb a6bd
000001d0: 6aca 90be 6f48 49bd a5b1 a13e bfcd 59be
000001e0: 74a3 aebe 34e3 67be 5b9f 40be b0d3 69bc
000001f0: e5a2 d8be 5886 59bd d42c af3e 6889 9e3e
00000200: 94c1 71be af8b ff3d a45a 2dbe 0462 7d3e
00000210: bba1 933d 8c9d 623e 9e71 823e 04e7 4e3e
00000220: e620 c83d 2b4f 09bf 47b4 073e 3533 213e
00000230: 09aa b9be 1d0e d2bc 846a b7be 544a 813d
00000240: efb8 17be 2b86 b03e 2486 49bd 6e77 c8bb
00000250: 6506 85be 63d9 14be 9ddc fc3d 2ada 943e
00000260: b037 9bbd daad 15be 0018 5d39 0a07 81be
00000270: 8bfc 04be 134b fbbd 9b72 aa3d 375b 423d
00000280: ac09 c8bd 8a8a b23d 9925 5bbe 6e61 db3d
00000290: 2808 43be 692d 793e f542 7fbe 156e 33be
000002a0: 0d12 a2be f005 2d3e 24be 1abd de50 88be
000002b0: ac4f 763e 9b96 39be cac5 743e cca6 793d
000002c0: b818 10be 6f3b d2bd 7050 5c3e 62af 3dbe
000002d0: 35d9 bbbd 2e63 633e 4292 1ebe ca20 65be
000002e0: 38f4 a73e e2cc 4e3e c297 cabe 84fb 2ebe
000002f0: cb37 89bd 4632 cdbe 0407 913e b4c9 f9bc
00000300: 3a4c 623e b073 e33c c4e3 b23d d21b b0bd
00000310: 997d 28be c0fd d3bd 94e6 a73d fa6c 9fbd
00000320: ab84 333e 1f92 8b3e 0d66 febe 7368 1a3e
00000330: b64c 823e d512 6dbe 7bab 10bb 78b4 553d
00000340: 75b6 a53c 8e1d c9be 1d8d d3bc 98c0 9abd
00000350: fabe 3a3e f79e 7dbf ceba ed3d 077d 91be
00000360: cb02 91be ac81 113e 68b0 243e d075 a53e
00000370: a788 00be 64fe d3bd b66a 16be 7e2b 43bc
00000380: 802a 463c 61ef a2bd aebc 3a3e 15ad 773e
00000390: 4eb2 093e a605 c3be 5a7c ba3e 2a0b 323e
000003a0: 22d6 28bd 40f8 c1bd eda3 f63d 0058 adbc
000003b0: 09c4 39be 369f 3d3d a949 27be 5011 d4be
000003c0: bffa 67bd 7fca afbc 515d adbc bda1 8f3d
000003d0: 152c 593d 80c8 5e3e 0ed2 f4be 78f9 433e
000003e0: 77ca cbbe 2689 063e 1fb4 b6bd 14c6 b93d
000003f0: 2773 cdbc b6fa 923e 5a5d 0d3e b60f 06be
-0.07852605 -0.052266415 0.21984151 0.08302235 -0.14807917 0.31673133 -0.007987781 -0.11498976
0.30677682 -0.85086155 -0.11076552 -0.05702483 -0.17872536 -0.4199527 -0.2783828 -0.18204707
0.09211807 0.2560231 0.15788996 -0.2311323 0.026335565 -0.24535072 -0.026625067 0.29413196
0.11188698 0.255121 -0.0511733 -0.23437859 -0.10523159 -0.21673065 0.083332874 0.026869988
0.09112167 0.29854512 0.14881167 -0.46939498 -0.13799353 -0.16869457 0.05564899 -0.13519028
-0.4066927 0.03133215 0.18690938 -0.5021886 -0.20749018 -0.5049692 -0.26557285 0.04809686
-0.34234938 0.13805115 -0.10158321 0.1793524 0.12305839 0.15241341 -0.28321382 -0.240236
0.104954325 0.111115724 -0.28428116 -0.25360143 0.08778232 0.22525184 -0.1424785 -0.17407075
0.15628642 -0.265815 -0.027157664 0.12893969 -0.25414246 0.15810665 0.040910542 -0.18931025
0.03551055 0.23287171 0.051139865 0.34882924 -0.542334 -0.059306677 -0.10556729 0.1964202
-0.23045117 0.15263484 -0.44966942 0.26043603 -0.110972896 -0.67161334 0.055554785 -0.534887
0.11212983 -0.25854746 0.19163099 -0.14085042 -0.1741595 0.053336505 0.05521583 -0.24984068
-0.035938412 -0.24049427 -0.16166744 0.09313593 -0.12446508 0.038878836 -0.520627 -0.05229773
0.097014 0.019527938 -0.17929666 -0.21918315 -0.13915384 0.15996957 -0.30936107 -0.21882197
0.0848804 -0.441304 -0.066858806 -0.0814725 -0.2827943 -0.049141344 0.31580845 -0.21269892
-0.3410908 -0.22645265 -0.1881079 -0.014271662 -0.4231178 -0.053106636 0.3421389 0.30964208
-0.23609 0.124778144 -0.16929108 0.24744421 0.07208582 0.22130412 0.25477308 0.20205313
0.097719 -0.53636426 0.13252364 0.1574219 -0.3626254 -0.025641495 -0.35823452 0.06313005
-0.1481664 0.34477362 -0.049200192 -0.0061177528 -0.2598144 -0.14536051 0.12346766 0.29072696
-0.07578981 -0.146171 0.00021085143 -0.25200683 -0.12986962 -0.12270179 0.083226405 0.04745027
-0.0976747 0.087178305 -0.21401061 0.107119426 -0.1904608 0.24333729 -0.24927886 -0.17522462
-0.31654397 0.16896796 -0.03777899 -0.26624197 0.2405383 -0.18123858 0.23903576 0.060950086
-0.1407193 -0.10265242 0.2151506 -0.18523934 -0.09172288 0.22205803 -0.1548548 -0.2237579
0.32803512 0.20195344 -0.39568907 -0.17088133 -0.06700095 -0.40077418 0.28325665 -0.030491687
0.2209939 0.027765125 0.08734849 -0.08599056 -0.16454162 -0.10351133 0.08198276 -0.077844575
0.17531078 0.2725992 -0.49687234 0.15078907 0.2544915 -0.23151715 -0.0022074867 0.05217406
0.020228604 -0.3928036 -0.025824124 -0.075562656 0.18236914 -0.99070686 0.11607896 -0.284157
-0.28322443 0.14209622 0.16082919 0.32316446 -0.12552129 -0.103512555 -0.14689144 -0.011912225
0.012095094 -0.07955814 0.18236038 0.2418712 0.13446924 -0.38090247 0.36422998 0.17387071
-0.041219838 -0.09471178 0.12042985 -0.021160126 -0.18141188 0.046294414 -0.16336693 -0.41419458
-0.056635614 -0.021458862 -0.02116266 0.07013271 0.053020556 0.21756172 -0.4781651 0.19138134
-0.39802906 0.13138255 -0.08921074 0.090709835 -0.025079323 0.28706902 0.13805142 -0.13091931
