app/src/main/assets/keypoints_to_pose_classifier_v1.tflite (tflite, 68436 bytes, 6 tensors)

sequential/dense/BiasAdd/ReadVariableOp f4 [128]
0	0xbce7d2bd	-0.02829873
1	0xbc5720ec	-0.013130408
2	0xbbf18545	-0.0073706233
3	0xbcbbb1ec	-0.022911988
4	0x3cb349c5	0.021885762
5	0x3bf88e23	0.0075853034
6	0xbd16427e	-0.036684506
7	0x3c7cf453	0.015439111
8	0x3dc242b6	0.0948538
9	0x00000000	0.0
10	0x3b14de9f	0.00227157
11	0x3d4aab9b	0.049480062
12	0x00000000	0.0
13	0xbc8c9be2	-0.017164174
14	0x00000000	0.0
15	0xbc6e6fc9	-0.014553019
16	0x00000000	0.0
17	0x3ca5ed1d	0.020254666
18	0x3db150f3	0.08658018
19	0x3dbfe38d	0.09369574
20	0x3dd0888f	0.101822965
21	0x3c96da87	0.018414749
22	0x3d091ef3	0.03347678
23	0xbc18e4e1	-0.009331913
24	0x3c933650	0.017970234
25	0x3d3a3627	0.0454618
26	0xbcd02a03	-0.025410658
27	0x3d41771f	0.047232743
28	0xbc4c974b	-0.012487243
29	0x3b348f04	0.0027551064
30	0x3d84df03	0.064878486
31	0x3d297203	0.041368496
32	0xbb95bacd	-0.0045693875
33	0xbc574036	-0.013137868
34	0xbc929cee	-0.017897096
35	0x3dad0104	0.08447459
36	0xbd05abd8	-0.032634586
37	0xbc237d80	-0.009978652
38	0x00000000	0.0
39	0x3d5fc565	0.05463161
40	0xbd684bb1	-0.05671281
41	0x00000000	0.0
42	0x00000000	0.0
43	0x3d3c609f	0.045990583
44	0x3d6a0dd7	0.057142105
45	0x3d2f8749	0.042853627
46	0xbc54d98e	-0.012991322
47	0x3d7fe8f3	0.062478017
48	0x3dd972e0	0.10617614
49	0x00000000	0.0
50	0x3d712d73	0.058881234
51	0x3e09fd8d	0.13475628
52	0x3d0cbe64	0.03436126
53	0x00000000	0.0
54	0x00000000	0.0
55	0xbc4656c2	-0.012105646
56	0x39140e7a	0.00014119773
57	0x3dd197cb	0.1023403
58	0xbb259cd4	-0.0025270479
59	0x3d887353	0.06662621
60	0xbc2e1b70	-0.010626659
61	0x3ca8341c	0.02053266
62	0xbc09fdb4	-0.008422304
63	0xbd74a398	-0.059726328
64	0x00000000	0.0
65	0xbc7e19fb	-0.015509124
66	0x3cb8fcfc	0.02258157
67	0xbc366db5	-0.011134555
68	0xbba7870c	-0.0051125344
69	0x3b9fbe51	0.0048749824
70	0x399f8718	0.00030427496
71	0x3aa356e9	0.0012461814
72	0xbd5bfe78	-0.053709477
73	0x3d1b07d6	0.03784927
74	0x3c97b69a	0.018519688
75	0x3d73e356	0.059542976
76	0x00000000	0.0
77	0x3dcb6f9d	0.09933398
78	0xbd80d795	-0.06291119
79	0xbc577c18	-0.013152145
80	0x3d856e05	0.06515125
81	0x3d45e477	0.048313584
82	0xbbe12d6d	-0.0068718703
83	0x00000000	0.0
84	0x00000000	0.0
85	0x3cd4d976	0.0259826
86	0x3c5d86ff	0.013520955
87	0x3cfcc7a7	0.03085692
88	0x3c9d0372	0.019166682
89	0xbd21942a	-0.03944794
90	0x3deecb4a	0.11659868
91	0x00000000	0.0
92	0x3d5eba42	0.054376848
93	0x3d598f07	0.053114917
94	0xbd1d9f1a	-0.03848181
95	0xbb81c4ab	-0.003960212
96	0x00000000	0.0
97	0x00000000	0.0
98	0x00000000	0.0
99	0xbd12d540	-0.035847902
100	0x3c04ce01	0.008105756
101	0xbc36cec8	-0.011157699
102	0xbb10686d	-0.00220349
103	0x3c036fd0	0.008022264
104	0xbcdb4d61	-0.026770296
105	0x3d081287	0.033220794
106	0x3becd81c	0.0072279107
107	0xbd089cff	-0.03335285
108	0x3ce7f612	0.028315578
109	0xbca631b3	-0.02028737
110	0xbc4ad521	-0.012379915
111	0xbc0d25c5	-0.008614962
112	0xbca4de21	-0.02012545
113	0xbd2e8184	-0.042603984
114	0xbc53ba56	-0.012922844
115	0xbbfa7900	-0.007643819
116	0x3d4a7afe	0.0494337
117	0x3c89394f	0.01675096
118	0xbd3ae27d	-0.045626152
119	0x39e022ad	0.00042750445
120	0x3c2c3dbc	0.0105127655
121	0x3d6dac47	0.058025625
122	0x3d387cdb	0.045040946
123	0x3db74efc	0.08950612
124	0x3d2b9ecf	0.0418995
125	0x3c8296c6	0.015941035
126	0x3d07de9d	0.033171285
127	0x3d06efb1	0.03294343

sequential/dense_2/BiasAdd/ReadVariableOp f4 [25]
0	0xbc27f025	-0.010250126
1	0xbd16eace	-0.03684502
2	0xbcb1a309	-0.021684187
3	0xbd05850c	-0.032597587
4	0x3d81381f	0.063095324
5	0xbc2ada58	-0.010428034
6	0xbccf2f16	-0.025291007
7	0x3d419da4	0.04726948
8	0xbc188bba	-0.009310657
9	0xbc1ab66a	-0.009442905
10	0xbd02be74	-0.03191991
11	0xbb865528	-0.004099507
12	0x3c069da6	0.008216297
13	0x3d2bc567	0.041936304
14	0x3c049465	0.008092021
15	0xbcdd2bf3	-0.026998496
16	0xbc1ccd6f	-0.009570464
17	0x3c312dea	0.010814169
18	0x3d48a307	0.0489836
19	0xbd0806de	-0.033209674
20	0x3992c110	0.00027991133
21	0xbcb0be7f	-0.02157521
22	0x3d8a57d4	0.06755033
23	0x3d561f01	0.05227566
24	0xbd6b4119	-0.05743513

sequential/dense_1/BiasAdd/ReadVariableOp f4 [64]
0	0xbcbe2ce6	-0.023214769
1	0x3c906e51	0.017630728
2	0x00000000	0.0
3	0xbc83b9d1	-0.016079815
4	0x3d277dbe	0.0408914
5	0x3c25d31d	0.010121134
6	0xbb4009ae	-0.0029302645
7	0x3c816db3	0.015799379
8	0x3ca1e517	0.019762559
9	0xbc50d85e	-0.012746898
10	0x00000000	0.0
11	0x3c2b7ab1	0.010466264
12	0xbb1676a4	-0.00229589
13	0x3d229a9e	0.039698236
14	0x3ba19f3a	0.0049323114
15	0x3d32d57c	0.043660626
16	0xbb410498	-0.00294522
17	0x3d389e9f	0.045073148
18	0x3c868362	0.01642007
19	0x3d48c9df	0.049020644
20	0x3d34c59a	0.04413376
21	0x3d0e2af4	0.034708932
22	0x3d887c9b	0.066643916
23	0x3d697e92	0.057005472
24	0x3b9416a6	0.0045193015
25	0xbc1b75b1	-0.009488509
26	0x00000000	0.0
27	0x3d4a526b	0.049395006
28	0x3ad98011	0.0016593953
29	0x3d4b6372	0.049655385
30	0x3d96345e	0.07334207
31	0x3d3ed79d	0.046592344
32	0x3d81554f	0.063150994
33	0x3d339b62	0.043849356
34	0xbc7d3604	-0.015454773
35	0x3d195882	0.037437923
36	0xbba58934	-0.0050517563
37	0xbc95d9d1	-0.01829234
38	0xbcc0dabc	-0.0235418
39	0xbcbd6384	-0.023118742
40	0xbc6b09fc	-0.014345642
41	0x3cb94d0d	0.022619748
42	0x00000000	0.0
43	0x3d229949	0.039696965
44	0x3d4b4f80	0.049636364
45	0x3d04aa77	0.03238913
46	0x00000000	0.0
47	0x3d023ab2	0.031794257
48	0xbc50e13e	-0.012749014
49	0x3cd93467	0.026514245
50	0xbbe89773	-0.0070981323
51	0x3db5d1f3	0.08877935
52	0x3d241c6b	0.040066164
53	0x3d39ce80	0.04536295
54	0x3d0ba3e2	0.034091838
55	0xbcbc8e91	-0.0230172
56	0xbc47f965	-0.012205456
57	0x3d24591b	0.04012404
58	0x3cca1055	0.02466599
59	0xbb20ee74	-0.0024556192
60	0xbd294fc2	-0.04133583
61	0x3d807708	0.062727034
62	0x3d66fee9	0.056395445
63	0x3c7aae64	0.015300367

sequential/dense/MatMul f4 [128, 51]
0	0xbe40239a	-0.18763581
1	0x3d86ba87	0.06578546
2	0x3d3b35f4	0.04570575
3	0xbdbd6c6e	-0.09249197
4	0xbe14c72a	-0.145291
5	0x3bd36131	0.006450795
6	0xbe382998	-0.17984617
7	0xbe2f3de5	-0.17113455
8	0xbd5ec63e	-0.054388277
9	0xbdc2a906	-0.09504895
10	0x3e144ec7	0.14483176
11	0x3db3fdaf	0.08788621
12	0xbe69718c	-0.22797221
13	0x3e04e821	0.12979175
14	0x3d2a92ad	0.041643787
15	0x3da22d02	0.07918741
16	0x3dac6e4a	0.084194735
17	0xbd227a12	-0.039667197
18	0xbe508a81	-0.20365335
19	0x3d97db21	0.074148424
20	0xbd908875	-0.07057277
21	0x3e82d225	0.25550953
22	0x3dc939d1	0.09825481
23	0xbd854a2c	-0.06508288
24	0x3eaefccc	0.34177244
25	0x3ddad704	0.10685542
26	0x3d23bf8f	0.039977606
27	0x3eb779f2	0.35835224
28	0xbcf788e0	-0.030216634
29	0xbd23787b	-0.03990982
30	0x3e9a0980	0.30085373
31	0xbdedc410	-0.116096616
32	0x3e10803e	0.1411142
33	0x3df791d7	0.120883636
34	0xbab75921	-0.0013988354
35	0x3d40e0cb	0.04708938
36	0x3cd558b1	0.026043268
37	0xbe17766a	-0.14791265
38	0x3e135de3	0.14391284
39	0x3e944b37	0.28963634
40	0xbe61277c	-0.21987718
41	0xbda9b085	-0.082856216
42	0x3e95baf6	0.29244202
43	0x3d88c04c	0.06677303
44	0xbd1f1d94	-0.038846567
45	0x3cd1272c	0.025531374
46	0xbc07bc4c	-0.00828464
47	0x3d8ef003	0.06979372
48	0xbe547d78	-0.20750988
49	0xbe12966a	-0.14315191
50	0xbe3aa4f3	-0.18226986
51	0xbdf1692c	-0.11787638
52	0xbd795f5d	-0.06088196
53	0xbd80e964	-0.06294516
54	0x3d4f3e90	0.050596774
55	0x3d8faf41	0.07015849
56	0x3c8ba799	0.01704769
57	0x3dea6033	0.1144413
58	0x3e09993a	0.13437358
59	0xbda4a520	-0.080393076
60	0xbe3bf2ef	-0.1835439
61	0x3e0711c8	0.13190377
62	0xbdeeb665	-0.11655883
63	0x3ddf46b7	0.1090216
64	0x3dfa9394	0.122351795
65	0x3dab6000	0.0836792
66	0xbe2d0d17	-0.16899525
67	0xbe118217	-0.14209782
68	0x3df32acc	0.11873397
69	0x3d72413d	0.059144247
70	0x3cbde4e2	0.023180429
71	0x3cf4f2ae	0.029900875
72	0xbe02e80e	-0.12783834
73	0xbd92fb7e	-0.071768746
74	0xbe155a59	-0.14585246
75	0x3d1f323e	0.038866274
76	0xbe1104ab	-0.14161937
77	0xbdc5f697	-0.09666174
78	0xbdc6f5dd	-0.097148634
79	0x3d1f8ff9	0.038955662
80	0xbce13244	-0.027489789
81	0xbd95a72c	-0.07307276
82	0x3c2e02ab	0.010620753
83	0xbe15b339	-0.1461915
84	0x3c106544	0.008813206
85	0xbd920c73	-0.07131281
86	0xbe2abc87	-0.1667348
87	0xbd834727	-0.064100556
88	0x3e0adfb6	0.13561901
89	0x3baa41f7	0.005195852
90	0x3ded3815	0.115829624
91	0xbe2f5b8f	-0.1712477
92	0xbd772bb4	-0.060344413
93	0xbdcb57eb	-0.099288784
94	0x3df18d01	0.117944725
95	0x3e2baf82	0.1676617
96	0xbd976ae1	-0.073934324
97	0xbbaed99b	-0.005335999
98	0xbcca3e06	-0.024687778
99	0x3e0bc13d	0.13647933
100	0xbe0299b3	-0.12753944
101	0x3e02c6fc	0.12771219
102	0x3dee99df	0.11650442
103	0xbdf6bd98	-0.12047881
104	0x3e2aba5d	0.16672654
105	0x3e158bf5	0.1460417
106	0xbe008730	-0.1255157
107	0xbc231da0	-0.009955794
108	0x3cc792b0	0.024361938
109	0x3c27895d	0.010225621
110	0xbe0db159	-0.13837184
111	0x3d82a505	0.06379131
112	0xbd4626d9	-0.04837689
113	0x3e3a8779	0.18215741
114	0x3e508cec	0.20366257
115	0x3d3d51f4	0.046220735
116	0xba22d69f	-0.00062117906
117	0x3ddb6da8	0.10714275
118	0xbe27354a	-0.16328922
119	0x3e3a943b	0.18220608
120	0x3e338028	0.17529356
121	0xbd2e8c86	-0.042614482
122	0x3d54408e	0.051819377
123	0xbc0dbe3d	-0.008651313
124	0xbe46739e	-0.19380042
125	0xbe392c57	-0.1808332
126	0xbe8316c5	-0.2560331
127	0x3df2dc71	0.11858452
128	0x3e119802	0.14218143
129	0xbea4c552	-0.32181793
130	0xbe7f55c8	-0.24935067
131	0xbe20de60	-0.1570983
132	0xbe8bc003	-0.2729493
133	0x3e64b784	0.2233563
134	0x3cfd7fe9	0.030944781
135	0xbe2744b1	-0.16334797
136	0xbc6e478c	-0.014543425
137	0x3d42884d	0.047493268
138	0xbde360fb	-0.11102482
139	0xbd945c25	-0.07244138
140	0xbb9f35e6	-0.00485872
141	0x3c837c3b	0.016050449
142	0x3cc75543	0.024332648
143	0x3d5c7940	0.05382657
144	0xbd1accca	-0.03779296
145	0x3cbedf1d	0.023299748
146	0x3e278022	0.16357473
147	0x3e7dd842	0.24789527
148	0x3e5c4a62	0.2151275
149	0xbce4d727	-0.027934624
150	0x3e83e0c7	0.2575743
151	0xbd0fdc7b	-0.035122376
152	0x3e49a718	0.19692647
153	0xbe3c415e	-0.1838431
154	0x3dc872e5	0.097875394
155	0xbc8949a3	-0.016758746
156	0xbdb22f0b	-0.08700379
157	0x3dc33fa4	0.09533623
158	0xbdf5b116	-0.11996667
159	0xbe9f2e66	-0.31090087
160	0xbc35a0f3	-0.011085737
161	0x3da8db40	0.082449436
162	0xbe30e59a	-0.17275086
163	0x3e47b927	0.19504224
164	0x3de7cca4	0.11318329
165	0xbe0cc708	-0.137478
166	0xbdc342a6	-0.095341966
167	0x3e4da8ba	0.20083895
168	0xbdf8ed6a	-0.12154658
169	0x3e3ee000	0.18640137
170	0x3e163dc6	0.14672002
171	0xbdf86b4a	-0.12129839
172	0xbc4e5fb7	-0.012596062
173	0x3cf4d6bd	0.029887551
174	0xbdf260a2	-0.118348375
175	0xbe12cba2	-0.14335492
176	0xbe1dfd8d	-0.15428753
177	0x3e624133	0.22095184
178	0xbe070216	-0.1318439
179	0x3dccdbb2	0.10002841
180	0x3ddb99d1	0.107226975
181	0xbd6fccd2	-0.05854494
182	0xbd5f8227	-0.054567482
183	0xbcb482ef	-0.02203509
184	0xbd2e7bdd	-0.042598594
185	0xbd2d053b	-0.042241316
186	0x3f02cdfa	0.51095545
187	0x3e2fabf2	0.17155436
188	0xbddc9ca7	-0.107720666
189	0x3eaf30e3	0.34216985
190	0x3c7d45f6	0.0154585745
191	0x3d5249a1	0.05133975
192	0x3ebf18ec	0.373237
193	0x3d1d960d	0.038473178
194	0x3e1f376b	0.15548484
195	0x3e17f05f	0.14837788
196	0xbeae925c	-0.34096038
197	0x3c87a745	0.016559253
198	0x3db85063	0.089997075
199	0xbdd0fbe4	-0.10204294
200	0xbe1f43ab	-0.15553157
201	0x3e69c407	0.22828685
202	0xbe2b9d86	-0.16759309
203	0x3d8ceda8	0.06881267
204	0xbe550c08	-0.20805371
205	0xbe0b94a7	-0.13630925
206	0x3e29dc62	0.16587976
207	0xbe0972f8	-0.13422763
208	0xbe82cc45	-0.2554647
209	0xbda20f87	-0.07913118
210	0xbe365e70	-0.17809463
211	0xbe391435	-0.18074115
212	0x3e08447a	0.13307372
213	0x3c47cf2e	0.012195392
214	0x3d78f4cd	0.060780335
215	0x3e5b5abc	0.21421331
216	0x3d822c6b	0.06356128
217	0xbde87a79	-0.11351485
218	0x3c93fd91	0.018065246
219	0xbe471870	-0.19442916
220	0xbe1f836c	-0.15577477
221	0x3e109f3e	0.14123246
222	0x3dcd426a	0.10022433
223	0xbe0623e3	-0.13099627
224	0x3d5f5a91	0.05452973
225	0x3e22df03	0.15905385
226	0xbc751887	-0.014959461
227	0x3e114b27	0.14188825
228	0x3d5ae3b1	0.0534398
229	0xbe018fa9	-0.12652458
230	0x3d5d67a3	0.054053914
231	0xbd8feede	-0.07027982
232	0xbdaa507a	-0.08316131
233	0x3c4c1b57	0.01245769
234	0x3ea2472c	0.31694925
235	0x3d91f01c	0.07125875
236	0xbc27bf71	-0.010238514
237	0x3e599fe3	0.21252398
238	0x3c9790a8	0.018501595
239	0xbd97fbd2	-0.07421078
240	0x3e5b10f0	0.2139318
241	0x3e10c1df	0.14136456
242	0x3d6acdd3	0.057325196
243	0x3e2f3a5c	0.17112106
244	0xbe21b40b	-0.15791337
245	0x3d22fbcb	0.03979091
246	0x3ec516ee	0.38494056
247	0x3dc04dd8	0.093898475
248	0x3d41a21d	0.047273744
249	0xbd809618	-0.06278628
250	0xbdfc3c16	-0.12316148
251	0x3d7bcc87	0.06147435
252	0xbcc948fa	-0.02457093
253	0x3e94547e	0.28970712
254	0x3dce83c6	0.100837275
255	0x3dd09966	0.101855084

sequential/dense_1/MatMul f4 [64, 128]
0	0x3e209ac9	0.15684046
1	0xbcaa64a0	-0.020799935
2	0x3df83c62	0.12120892
3	0x3d622817	0.055214014
4	0x3e0ca89a	0.13736191
5	0x3e048a47	0.12943374
6	0x3c9a94f5	0.018869856
7	0xbd379dbd	-0.044828165
8	0xbd04cf47	-0.032424238
9	0x3c7df2e0	0.0154998
10	0xbdae197a	-0.08500953
11	0x3de62517	0.11237543
12	0x3d4c3194	0.04985197
13	0xbe04a97e	-0.12955281
14	0xbc9e4ec0	-0.01932466
15	0xbd39f9f1	-0.04540438
16	0x3d33138c	0.043719813
17	0xbe3367aa	-0.17520013
18	0x3e08642f	0.13319467
19	0xbcc811b3	-0.024422502
20	0xbdaff259	-0.08591146
21	0xbe41c090	-0.18921113
22	0xbe0080c0	-0.12549114
23	0x3e1b6d13	0.15178327
24	0xbb68b7ca	-0.0035509937
25	0xbdd9dc97	-0.10637777
26	0x3dcd2a65	0.10017852
27	0xbd96c718	-0.07362193
28	0x3de3639b	0.111029826
29	0x3d25c902	0.0404749
30	0x3e0f4917	0.13992725
31	0xbddcfd41	-0.10790492
32	0x3e02a1d4	0.12757045
33	0x3cacd334	0.021096803
34	0xbdd11de4	-0.10210779
35	0x3dedb9dc	0.116077155
36	0xbe11691e	-0.14200255
37	0x3d5810c4	0.052750364
38	0x3db7bac2	0.08971168
39	0xbdf8ff99	-0.121581264
40	0x3e144487	0.14479266
41	0xbe28cbdc	-0.16484016
42	0x3d99bf1e	0.07507156
43	0x3e11932c	0.14216298
44	0xbe0cceae	-0.13750717
45	0xbda15a8a	-0.07878597
46	0x3ddbb3c3	0.10727646
47	0xbdd9de28	-0.10638076
48	0x3e0baf06	0.13640985
49	0x3cb3ab70	0.021932334
50	0xbdbeb78b	-0.09312352
51	0xbdddd503	-0.108316444
52	0xbe384342	-0.17994407
53	0x3d735dfc	0.059415802
54	0x3e3421f3	0.17591076
55	0xbe17548d	-0.14778347
56	0x3bb7bed3	0.005607465
57	0xbe076371	-0.13221528
58	0x3d664338	0.05621645
59	0xbbebafe9	-0.007192601
60	0x3e24deae	0.1610057
61	0xbdb6c82c	-0.089248985
62	0xbe35d45e	-0.17756793
63	0xbc2a9078	-0.010410421
64	0xbc6575d0	-0.0140051395
65	0x3d9e7c80	0.0773859
66	0xbda7d62e	-0.081951484
67	0xbe094702	-0.13405994
68	0xbe0b98ec	-0.13632554
69	0xbddb9194	-0.10721126
70	0x3d903db3	0.07043018
71	0x3dc93fda	0.09826632
72	0x3cf48e0d	0.029852891
73	0x3e041949	0.1290027
74	0xbe01010e	-0.12598059
75	0x3dd62220	0.104557276
76	0xbde5bf38	-0.11218113
77	0x3d0d753b	0.034535628
78	0x3e1c3aaa	0.15256754
79	0xbd9d8703	-0.07691767
80	0xbd932fcb	-0.0718685
81	0xbb8c4cb5	-0.004281605
82	0x3e11f695	0.1425422
83	0x3da9b296	0.08286016
84	0xbdb46492	-0.08808245
85	0xbcbd28e9	-0.023090797
86	0xbd805354	-0.062658936
87	0xbcfdfcef	-0.031004397
88	0xbdd73b1e	-0.105093226
89	0xbd236b3c	-0.03989719
90	0xbcb8b8c4	-0.02254904
91	0x3e06564d	0.13118859
92	0xbcb0c8de	-0.021580156
93	0xbe19e983	-0.15030484
94	0xbdaf8a74	-0.0857133
95	0xbcb6732f	-0.02227172
96	0xbe09d1fa	-0.13459006
97	0xbdfcdd81	-0.12346936
98	0xbd9d6f35	-0.07687227
99	0x3e0d8679	0.13820828
100	0x3dd68ece	0.104764566
101	0x3e0b6382	0.13612178
102	0x3e0dc11b	0.13843195
103	0xbe28be49	-0.16478838
104	0xbc51a982	-0.0127967615
105	0xbe353a5c	-0.17698044
106	0xbd45822f	-0.048219856
107	0x3e16425d	0.14673753
108	0x3deceffc	0.11569211
109	0xbcda8015	-0.026672402
110	0xbcc689b7	-0.02423559
111	0x3df78921	0.12086702
112	0xbd1967bf	-0.037452456
113	0xbcad2b72	-0.02113888
114	0xbdb16b91	-0.08663095
115	0xbc9358e2	-0.017986719
116	0xbe0e4b01	-0.13895799
117	0x3e0fbbbe	0.14036462
118	0x3de0fa47	0.109852366
119	0x3bf04f6f	0.007333688
120	0x3bdf53d6	0.006815414
121	0x3dae0e3f	0.08498811
122	0xbddbbb64	-0.10729101
123	0xbe3cd6d1	-0.18441321
124	0xbdb11f70	-0.08648574
125	0x3da93fe9	0.08264143
126	0x3d656bd6	0.056011043
127	0x3dcb37e2	0.09922768
128	0x3e7f4db1	0.2493198
129	0xbdf09b0c	-0.11748323
130	0xbd0fd6a2	-0.0351168
131	0xbe5b5de8	-0.21422541
132	0xbbf66e25	-0.0075204545
133	0x3e8ba119	0.27271345
134	0x3eaede6e	0.34154075
135	0x3e20b79d	0.15695043
136	0xbda02177	-0.07818883
137	0xbde85b26	-0.1134551
138	0x3d2c11d3	0.042009186
139	0x3e2126d0	0.15737462
140	0xbd969327	-0.07352286
141	0xbd419de3	-0.047269713
142	0xbd76b25c	-0.06022869
143	0x3c995976	0.018719416
144	0x3e1b8293	0.15186529
145	0x3e6eb99e	0.23312995
146	0xbe086504	-0.13319784
147	0x3ede4b95	0.4341704
148	0x3dad4681	0.08460713
149	0x3e74a30c	0.23890322
150	0x3e5a6daa	0.21330896
151	0xbd5c8c39	-0.053844664
152	0xbdfa300e	-0.12216197
153	0x3eb2bf6c	0.34911668
154	0xbe2f3664	-0.17110592
155	0xbd8ab354	-0.067724854
156	0xbeac65ec	-0.3367151
157	0x3d19d319	0.037554834
158	0x3e0071b5	0.12543376
159	0xbc567e26	-0.0130916
160	0x3ea58f87	0.32336065
161	0xbd0d74d4	-0.034535244
162	0xbe19393a	-0.14963236
163	0xbe8cf4fc	-0.27530658
164	0x3c846fc9	0.016166585
165	0x3d349a2d	0.044092346
166	0xbdeb56b0	-0.11491144
167	0x3c8d1364	0.01722116
168	0xbdc7ecb8	-0.097619474
169	0xbe329e98	-0.17443311
170	0xbe0bfab4	-0.13669854
171	0x3d3cf0fa	0.04612825
172	0x3e6c21dd	0.23059793
173	0xbeb3601f	-0.35034272
174	0xbdfcf873	-0.123520754
175	0x3ea8fed1	0.3300691
176	0xbe0ea500	-0.1393013
177	0x3e00b7eb	0.12570159
178	0xbdff9e76	-0.12481396
179	0xbec0d1d0	-0.37660074
180	0xbdf26b13	-0.11836829
181	0xbe176538	-0.14784706
182	0xbcd2de08	-0.025740638
183	0x3e8637ee	0.26214546
184	0xbe5e80f9	-0.21728887
185	0x3e21414b	0.15747564
186	0xbd6e8e4e	-0.05824118
187	0x3e55c155	0.20874532
188	0x3dba60fd	0.0910053
189	0xbe19849b	-0.14991991
190	0xbce52204	-0.027970321
191	0xbd3eb54f	-0.046559628
192	0xbe30f6a1	-0.17281581
193	0x3e182c9f	0.14860772
194	0x3e824082	0.2543984
195	0xbe059bcc	-0.13047713
196	0xbdf1ce14	-0.118068844
197	0xbe8c6d58	-0.27427173
198	0x3e511820	0.20419359
199	0x3ce9d374	0.028543212
200	0x3e5a1567	0.21297227
201	0xbe456077	-0.1927508
202	0x3e93cef7	0.2886884
203	0x3d9141e1	0.070926435
204	0x3d920a4e	0.07130872
205	0x3d82ba4a	0.06383188
206	0x3e2bf373	0.16792087
207	0x3cfb84e9	0.030703025
208	0x3e544985	0.2073117
209	0xbe98481f	-0.29742524
210	0x3d002003	0.03128053
211	0xbdc256c6	-0.09489207
212	0x3d1148cc	0.035469815
213	0xbe33f4a9	-0.17573799
214	0x3e1f8aea	0.15580335
215	0x3e1f66b0	0.15566516
216	0xbde6ea29	-0.11275131
217	0x3e31b07b	0.17352478
218	0xbde0b91f	-0.10972809
219	0x3d5ad99c	0.053430185
220	0x3e8262cb	0.25465998
221	0x3e37c428	0.17945921
222	0xbc2ffa56	-0.010740837
223	0x3e15a501	0.14613725
224	0x3c180100	0.009277582
225	0xbe13b302	-0.14423755
226	0xbd7fd282	-0.062456615
227	0x3e134e2b	0.14385287
228	0x3e973b20	0.29537296
229	0x3e29907f	0.16559027
230	0x3e5a80f5	0.21338256
231	0x3da88f5b	0.08230468
232	0x3e972cf2	0.29526478
233	0x3ec0e2b5	0.37672964
234	0xbda06f7f	-0.07833766
235	0xbc8d6409	-0.017259615
236	0xbc09a7ce	-0.008401824
237	0x3d46ac26	0.048504017
238	0x3ec21700	0.37908173
239	0xbd651ed9	-0.05593762
240	0x3e9bf123	0.3045741
241	0x3e7c0e6e	0.2461488
242	0x3d3881c8	0.045045644
243	0xbe2a299a	-0.16617432
244	0x3c9ba479	0.018999325
245	0xbdb670c8	-0.0890823
246	0x3ed0d436	0.40786904
247	0x3ead59cf	0.3385758
248	0x3ebf7519	0.37394026
249	0xbcb8daa9	-0.022565203
250	0x3e2c8d81	0.16850854
251	0xbe510d98	-0.20415342
252	0x3eee9e46	0.46605128
253	0x3eb52382	0.35378653
254	0x3e6c6df5	0.2308882
255	0xbdfd0143	-0.12353756

sequential/dense_2/MatMul f4 [25, 64]
0	0xbd93fcde	-0.07225965
1	0x3e09b2e8	0.13447154
2	0x3d55b808	0.05217746
3	0x3d9154cb	0.07096251
4	0xbe0f9cff	-0.14024733
5	0xbe10fca2	-0.14158872
6	0xbe337190	-0.1752379
7	0xbcff7118	-0.031181857
8	0xbe4bff58	-0.19921625
9	0xbe3f8e3d	-0.18706603
10	0x3e0f23ce	0.13978502
11	0xbf0ca428	-0.5493798
12	0xbeb0a2fe	-0.34499353
13	0xbdad7cf6	-0.084711
14	0xbd1dd403	-0.03853227
15	0xbf2fdf60	-0.6870022
16	0x3ea700ea	0.32617885
17	0x3e360bc8	0.17777932
18	0xbd361854	-0.044456795
19	0xbeaaeb04	-0.33382428
20	0xbdf7016a	-0.120608166
21	0xbc750f4a	-0.0149572585
22	0xbede38fe	-0.43402857
23	0xbdb270b4	-0.08712903
24	0x3d9729e5	0.073810376
25	0x3e304b7c	0.17216295
26	0x3e3cf230	0.18451762
27	0x3e888345	0.2666265
28	0xbf0a80fc	-0.54103065
29	0xbeee4f26	-0.4654476
30	0xbe93c2c7	-0.2885954
31	0xbe040fe6	-0.1289669
32	0xbdcb0aa0	-0.09914136
33	0xbf61d17a	-0.8821026
34	0xbd9edeec	-0.07757363
35	0x3e034154	0.1281789
36	0xbbec8039	-0.007217434
37	0x3e29f2db	0.16596548
38	0x3c02e209	0.007988461
39	0x3dc7f332	0.09763183
40	0x3d4a246b	0.049351137
41	0x3ea23291	0.31679204
42	0x3e2b77c4	0.16744906
43	0xbd6fb542	-0.05852247
44	0xbd2c1675	-0.042013604
45	0xbe90a0a5	-0.28247562
46	0xbe02f4fe	-0.1278877
47	0x3e1a1f3c	0.15050977
48	0xbdeafd71	-0.11474121
49	0xbef09799	-0.4699066
50	0x3e2b1f86	0.16711244
51	0x3e491ce9	0.19639935
52	0x3c89a046	0.016800057
53	0xbf13b479	-0.57697254
54	0xbee7aa5a	-0.45247155
55	0xbd5705d8	-0.052495807
56	0xbe03dd4d	-0.12877388
57	0x3dc8f275	0.0981187
58	0x3e08337e	0.13300893
59	0xbd5ac7fe	-0.053413384
60	0x3e607b51	0.21922041
61	0xbe4860ef	-0.19568227
62	0xbdeb83fe	-0.11499785
63	0x3dd4157a	0.10355659
64	0xbe6311fd	-0.2217483
65	0xbeb1cd5b	-0.34726986
66	0x3e022224	0.12708336
67	0xbdae3612	-0.08506407
68	0x3d25127f	0.040300842
69	0xbf00154f	-0.50032514
70	0x3e6972c3	0.22797684
71	0x3e2d73e6	0.16938743
72	0x3e9a0495	0.3008162
73	0xbe87bae9	-0.2650979
74	0x3e3cd588	0.1844083
75	0x3dfe14c3	0.12406304
76	0x3c2f89b8	0.010713987
77	0xbf0059cb	-0.50137013
78	0x3e80920c	0.25111425
79	0x3e22533e	0.15852067
80	0xbe27a393	-0.16370992
81	0xbe4b6542	-0.19862846
82	0x3ddc2f70	0.107512355
83	0x3e156bf1	0.14591958
84	0x3d82f46d	0.06394277
85	0xbe0e711f	-0.1391034
86	0x3dfa3502	0.12217142
87	0xbe5a083c	-0.21292204
88	0x3e095dc6	0.13414678
89	0xbe8c5e2e	-0.27415603
90	0x3bef3780	0.0073003173
91	0xbee13f94	-0.4399382
92	0xbe0b1444	-0.1358195
93	0xbe556424	-0.20838982
94	0xbe4b1231	-0.19831158
95	0x3e04ea9f	0.12980126
96	0xbddb5fc1	-0.10711623
97	0xbd51f6aa	-0.051260628
98	0xbe84d1bf	-0.25941274
99	0xbf41fe64	-0.75778794
100	0x3e2a776b	0.16647117
101	0x3ddf6d15	0.109094776
102	0xbea7550d	-0.32682076
103	0xbe28a391	-0.16468646
104	0xbe772dd6	-0.24138579
105	0xbdc72277	-0.097233705
106	0x3dda6774	0.10664263
107	0xbedafda2	-0.4277163
108	0xbea99344	-0.33120167
109	0x3e8e09c5	0.2774183
110	0x3e2dfff4	0.1699217
111	0xbe96162b	-0.29313788
112	0xbe087a3a	-0.13327876
113	0xbdb4f453	-0.08835664
114	0xbd285b89	-0.04110292
115	0xbea9b3e4	-0.33145058
116	0xbeac8f5b	-0.33703122
117	0x3e0dd95e	0.1385245
118	0xbdc637c8	-0.09678608
119	0x3e700607	0.23439799
120	0xbe61f825	-0.22067316
121	0x3e11bd61	0.14232399
122	0xbd99f470	-0.07517326
123	0xbdf15ebd	-0.11785648
124	0xbe5270eb	-0.20550887
125	0xbe2dd8ee	-0.16977283
126	0x3e981027	0.29699823
127	0x3e1c5b9e	0.15269324
128	0xbe219e7f	-0.15783118
129	0x3c5806f9	0.013185256
130	0x3e1d99f2	0.15390757
131	0x3cb06d6a	0.021536548
132	0x3dff5e80	0.12469196
133	0xbe70ec95	-0.23527749
134	0x3decd7ac	0.11564574
135	0xbe79ddbb	-0.2440099
136	0x3da7c968	0.08192712
137	0xbe701e9b	-0.23449175
138	0x3dfd059c	0.123545855
139	0xbe14e41e	-0.14540145
140	0xbed17543	-0.40909776
141	0x3e986b89	0.29769543
142	0x3eb36f02	0.3504563
143	0xbf1de1c9	-0.61672646
144	0xbaa2ffcb	-0.0012435851
145	0x3e687994	0.22702628
146	0x3e2d185d	0.16903825
147	0x3e5722f0	0.21009421
148	0x3d96a3c8	0.073554575
149	0xbecc13b7	-0.3985879
150	0xbed95528	-0.42447782
151	0xbd639c94	-0.055569246
152	0xbe064cf0	-0.13115287
153	0x3eaf500a	0.34240752
154	0x3e6879a2	0.22702649
155	0x3d5ecdff	0.054395672
156	0xbeb4f785	-0.35345092
157	0xbba66a13	-0.005078563
158	0xbe2919c9	-0.16513743
159	0x3c9072f5	0.01763294
160	0x3e4a0524	0.19728523
161	0xbf15b5d6	-0.58480585
162	0x3dfc89ed	0.12330995
163	0xbe579d50	-0.21056104
164	0x3d8b53f8	0.06803125
165	0xbc43f318	-0.011959814
166	0xbd8f5536	-0.069986746
167	0xbe2ba29b	-0.16761248
168	0xbe7a8c03	-0.24467473
169	0x3da14831	0.078750975
170	0xbe30b5ce	-0.17256853
171	0xbca76100	-0.020431995
172	0x3cf73088	0.030174509
173	0xbdb48687	-0.088147216
174	0xbe1f5762	-0.15560678
175	0x3dfe7362	0.12424351
176	0xbe706d7b	-0.23479263
177	0x3dc1ce22	0.09463145
178	0x3dd70128	0.104982674
179	0xbc33881c	-0.010957744
180	0xbea056b3	-0.31316146
181	0xbe6940bd	-0.22778602
182	0xbed52ae3	-0.41634282
183	0x3e5048ac	0.20340222
184	0x3d88b9ea	0.06676085
185	0xbe4b28ea	-0.19839826
186	0x3e4eb112	0.20184734
187	0x3e34fc9d	0.1767449
188	0xbd7b76e1	-0.06139267
189	0x3e6822f2	0.2266958
190	0xbc7cefc4	-0.015438024
191	0x3dd2f9b4	0.10301533
192	0xbdbe4b47	-0.09291702
193	0xbd0af8f6	-0.033928834
194	0xbe526e3d	-0.20549865
195	0x3e0e2fa2	0.13885358
196	0xbee7fe8c	-0.4531139
197	0xbf0f745f	-0.56036943
198	0x3ab33ef2	0.0013675375
199	0xbf1d4613	-0.6143505
200	0x3db10017	0.08642595
201	0x3e0a5184	0.13507658
202	0xbe205af6	-0.15659699
203	0xb92cbbc5	-0.00016473148
204	0x3e4f1eec	0.2022664
205	0xbf64a37f	-0.89311975
206	0xbe85488c	-0.2603191
207	0xbd4fe3b3	-0.05075426
208	0xbd452ba5	-0.048137326
209	0x3d2e1d5e	0.042508475
210	0xbde8d93a	-0.11369558
211	0x3d6e1b39	0.05813143
212	0xbe174064	-0.14770657
213	0xbe59737e	-0.21235463
214	0x3db60380	0.08887386
215	0xbdcc86b4	-0.0998663
216	0xbe2a899d	-0.16654058
217	0xbf0db6ca	-0.5535704
218	0xbe4deef0	-0.20110679
219	0xbef52f34	-0.47887576
220	0xbe1a10a0	-0.15045404
221	0xbe121fae	-0.14269897
222	0x3e9a1a6a	0.30098277
223	0x3d277529	0.040883217
224	0xbe504a7a	-0.2034091
225	0x3e75a46b	0.23988502
226	0x3e3e8865	0.18606718
227	0x3d888d96	0.066676304
228	0xbdcd707a	-0.10031219
229	0x3e279e12	0.16368893
230	0x3c54238c	0.012947928
231	0x3e11f789	0.14254583
232	0x3e401c35	0.1876076
233	0xbe73c1e4	-0.23804432
234	0xbdf719a2	-0.12065436
235	0xbe56b80b	-0.20968644
236	0x3eb73751	0.3578439
237	0xbd194c2a	-0.03742615
238	0xbe5b4134	-0.21411592
239	0x3daf5834	0.08561745
240	0x3dd19aad	0.1023458
241	0xbdee40bc	-0.11633441
242	0x3c274c9f	0.010211139
243	0x3d5e9676	0.05434271
244	0x3e79e4ea	0.2440373
245	0x3e38b728	0.18038619
246	0x3e301449	0.17195238
247	0x3e775469	0.24153294
248	0x3e20d21e	0.15705153
249	0xbef3c516	-0.47611302
250	0xbe76319b	-0.2404236
251	0x3d8124a2	0.06305815
252	0x3deb6810	0.11494458
253	0xbc6df63d	-0.01452404
254	0xbdc569c0	-0.09639311
255	0xbe08fa0b	-0.13376634
